checkpoint_1040.pth.tar (torch, 661473 bytes, 60 tensors)

fc11.weight f4 [64, 36]
0.063025594 -0.017387971 0.04808402 0.087714225 -0.14268406 0.0029773635 -0.101123646 0.022069791
-0.018514227 0.023022987 -0.058225412 0.079677954 -0.0218212 -0.0270335 -0.02642048 -0.047484033
-0.07890232 -0.0623438 -0.12852496 0.13801447 -0.12403377 -0.00028021354 0.04240767 0.098963
-0.14430584 0.03329225 0.048947215 0.14636166 -0.063149095 0.12213861 -0.1619865 -0.12557152
-0.012219706 -0.11772151 -0.09252128 0.125695 -0.095167264 -0.102819875 -0.067901805 0.048178617
-0.074017376 -0.16031052 -0.016479896 -0.031260267 0.13183196 0.11420185 0.046902124 0.07404433
0.01046592 0.003244799 -0.013687195 0.051868387 0.0035547847 -0.122580975 -0.06699114 0.0012174923
0.0077981325 0.0834853 -0.059414525 -0.06958803 -0.08457286 -0.14102207 -0.13671413 -0.14040284
-0.05013952 0.094344996 0.1482447 -0.059392527 -0.029116899 -0.16732971 0.09068526 0.11676637
0.002423032 0.05908388 0.13279629 -0.055060554 -0.019893197 -0.13699642 0.15576057 -0.12636235
-0.05377963 0.102411315 0.10227499 -0.007983999 0.08177752 0.09310739 -0.16582222 -0.12235398
0.06815882 0.055252388 -0.024285832 -0.16407731 0.08030889 -0.101180576 -0.09617253 0.15820383
-0.09201169 0.11120478 0.032021593 0.0927808 -0.054902248 0.060703725 -0.109765865 0.12822334
-0.021112505 0.10018318 -0.06961669 0.11838487 -0.1639251 0.057433266 0.16341138 0.14647852
-0.15208556 -0.14748771 0.117784545 -0.03469147 0.14637382 -0.1062351 0.15089302 -0.109271005
0.0390505 -0.010636077 -0.046447664 -0.105111726 0.04614922 -0.12806089 -0.15209907 -0.017827895
-0.08429876 0.15229146 0.085428394 -0.06227756 -0.13567206 -0.14741574 -0.039682478 0.0055822246
0.15620454 -0.022279732 0.05750169 -0.13420169 -0.06894268 -0.12216853 0.008648753 0.03606165
0.025714608 -0.15090652 -0.10217377 0.109296456 -0.036873594 -0.071332015 -0.11944354 -0.07807382
0.033490006 -0.08606189 0.11371525 -0.010593116 0.052893765 -0.1479967 0.15527804 -0.10516318
0.088717684 0.09687935 0.044988737 -0.030068826 0.0004455256 -0.14350325 -0.15405126 -0.09448805
0.03906772 0.16115591 0.11223858 -0.12174691 -0.043943625 0.10931891 -0.08186626 0.004211581
0.13812003 0.11037789 -0.03207942 -0.119312845 0.095627315 0.070938565 0.08105967 0.022819214
-0.008361969 0.16176121 0.12883906 0.04260512 0.12208377 0.12523186 0.074985445 0.0134393275
-0.079516076 0.03631409 -0.104215264 -0.11964778 -0.022468105 0.066359155 0.029472165 -0.016670283
-0.12302949 0.033107013 0.08282577 -0.14494681 -0.14020394 -0.1520631 0.089836404 0.0637807
0.0047038756 -0.046292726 0.14135002 -0.09826583 -0.15741892 -0.06367141 0.091964774 0.134095
0.0017031711 -0.08508147 -0.14680186 -0.08861295 -0.030290969 0.13000438 -0.11006254 0.14171983
-0.1399714 0.057689533 0.11045673 -0.08644212 -0.14042063 0.039353974 0.082710564 0.10599816
-0.11576952 0.12692654 -0.15283597 -0.009775556 -0.16739179 0.0015907433 0.030333087 -0.05160327
-0.011158173 0.02680752 -0.062453967 -0.027342128 -0.15861623 0.14419906 0.106976934 -0.071223356
0.066435374 -0.11010564 0.10940947 -0.07829212 -0.13553298 0.05715494 -0.040668074 -0.033069234
00000000: 9013 813d 3871 8ebc c0f3 443d 84a3 b33d
00000010: c51b 12be df1f 433b ea19 cfbd b5cb b43c
00000020: 26ab 97bc b49a bc3c c57d 6ebd 322e a33d
00000030: 60c2 b2bc 5c75 ddbc c36f d8bc 9e7e 42bd
00000040: 8a97 a1bd 365c 7fbd 0c9c 03be aa53 0d3e
00000050: 6b05 febd a0e9 92b9 aab3 2d3d 1dad ca3d
00000060: e9c4 13be 745d 083d e07c 483d d5df 153e
00000070: 5054 81bd cf23 fa3d cadf 25be d295 00be
00000080: 2935 48bc fa17 f1bd cc7b bdbd 31b6 003e
00000090: 0ee7 c2bd 3a93 d2bd 1a10 8bbd f156 453d
000000a0: 6c96 97bd 7128 24be d900 87bc c40a 00bd
000000b0: f5fe 063e a9e2 e93d 711c 403d 8ea4 973d
000000c0: 4079 2b3c b2a6 543b 4240 60bc f273 543d
000000d0: 64f7 683b bc0b fbbd a732 89bd 4394 9f3a
000000e0: 7a87 ff3b 57fa aa3d a55c 73bd 2b84 8ebd
000000f0: 8934 adbd 1768 10be cafe 0bbe c3c5 0fbe
00000100: 195f 4dbd f337 c13d 75cd 173e 9445 73bd
00000110: 9086 eebc 7b58 2bbe 32b9 b93d 3523 ef3d
00000120: bbcb 1e3b f001 723d c0fb 073e 2d87 61bd
00000130: 0ff7 a2bc ca48 0cbe b37f 1f3e 2265 01be
00000140: 0848 5cbd 06bd d13d 8d75 d13d 52cf 02bc
00000150: f97a a73d 16af be3d 4dcd 29be b994 fabd
00000160: da96 8b3d 5450 623d 15f3 c6bc e203 28be
00000170: fd78 a43d c337 cfbd 1af6 c4bd 2f00 223e
00000180: a070 bcbd 55bf e33d 1329 033d dc03 be3d
00000190: 2ee1 60bd 78a4 783d edcc e0bd fb4c 033e
000001a0: 22f4 acbc d72c cd3d 3293 8ebd c473 f23d
000001b0: fbdb 27be 253f 6b3d 5055 273e 77fe 153e
000001c0: 51bc 1bbe 0507 17be 0639 f13d a518 0ebd
000001d0: 05e3 153e ca91 d9bd b383 1a3e 7ac9 dfbd
000001e0: 6bf3 1f3d f142 2ebc e83f 3ebd d144 d7bd
000001f0: f706 3d3d 6522 03be dcbf 1bbe ce0b 92bc
00000200: d4a4 acbd 4bf2 1b3e 15f5 ae3d c116 7fbd
00000210: 9eed 0abe 27f4 16be 188a 22bd 18eb b63b
00000220: 15f4 1f3e fc83 b6bc e486 6b3d 2b6c 09be
00000230: d231 8dbd 7f33 fabd 80b3 0d3c 61b5 133d
00000240: 71a7 d23c 3d87 1abe 7b40 d1bd d2d6 df3d
00000250: c408 17bd 8516 92bd d19e f4bd 2be5 9fbd
00000260: d12c 093d 3741 b0bd 8ae3 e83d c08e 2dbc
00000270: 22a7 583d 728c 17be 3501 1f3e cb5f d7bd
00000280: 9eb1 b53d ae68 c63d 1c46 383d e652 f6bc
00000290: 6f95 e939 84f2 12be 9dbf 1dbe f382 c1bd
000002a0: 7905 203d 0e06 253e 57dd e53d 7256 f9bd
000002b0: 3bfe 33bd 98e2 df3d 7fa9 a7bd 4d01 8a3b
000002c0: 566f 0d3e ce0d e23d b665 03bd 4b5a f4bd
000002d0: 41d8 c33d 3d48 913d 9d02 a63d 5cef ba3c
000002e0: a400 09bc bba4 253e 63ee 033e b582 2e3d
000002f0: 0e07 fa3d c83c 003e f891 993d a030 5c3c
00000300: 53d9 a2bd 15be 143d d06e d5bd e509 f5bd
00000310: 080f b8bc 4fe7 873d 9c6f f13c 1e90 88bc
00000320: e3f6 fbbd 389b 073d 8fa0 a93d f06c 14be
00000330: 9f91 0fbe 6eb6 1bbe 26fc b73d 759f 823d
00000340: f822 9a3b 719d 3dbd 0fbe 103e 983f c9bd
00000350: 6d32 21be 2866 82bd 0758 bc3d 3350 093e
00000360: f03c df3a 323f aebd 3a53 16be b57a b5bd
00000370: c424 f8bc de1f 053e 7868 e1bd 011f 113e
00000380: aa54 0fbe dc4b 6c3d 2337 e23d 9108 b1bd
00000390: 6dca 0fbe a231 213d 2864 a93d 9015 d93d
000003a0: 9218 edbd 08f9 013e 0881 1cbe a729 20bc
000003b0: c168 2bbe 7d80 d03a 187d f83c f35d 53bd
000003c0: c5d0 36bc 729b db3c bbcf 7fbd 99fc dfbc
000003d0: 4b6c 22be eba8 133e b916 db3d 8ddd 91bd
000003e0: 450f 883d 117f e1bd 1212 e03d 9e57 a0bd
000003f0: 28c9 0abe 4c1b 6a3d 9193 26bd 9b73 07bd

fc11.bias f4 [64]
-0.012754723 0.054071587 -0.0023976685 0.10123882 -0.05550455 0.105702184 0.088723876 0.12390978
0.14918253 0.13696352 -0.029209513 -0.16335258 -0.0039720815 -0.053159915 0.07259944 -0.16519868
-0.11509291 -0.13169238 -0.091556884 -0.1577883 0.11035457 -0.093124315 0.050787024 -0.049087886
-0.11591236 -0.11375433 0.04882733 -0.10004926 -0.08185714 0.004534172 -0.025946705 0.015358389
0.10198433 0.1644094 -0.004780952 -0.11473567 -0.045998827 0.0005243229 0.049828783 -0.09008553
0.048189394 -0.05396061 -0.12637389 -0.021496091 -0.14487249 -0.06287381 -0.12779638 0.08055034
-0.0474187 0.06770618 -0.15397121 -0.13990548 0.17397109 -0.07310292 0.08712844 -0.13147652
-0.02669582 -0.12103384 0.057418138 -0.117253385 -0.15114674 -0.14502211 0.023574546 0.014931878
00000000: 30f9 50bc 2b7a 5d3d 3422 1dbb 4c56 cf3d
00000010: bd58 63bd 637a d83d ddb4 b53d 69c4 fd3d
00000020: 4ec3 183e 2a40 0c3e ca48 efbc e645 27be
00000030: 3c28 82bb 36be 59bd 04af 943d d829 29be
00000040: d5b5 ebbd 5eda 06be 2d82 bbbd 4293 21be
00000050: 9401 e23d f6b7 bebd 0e06 503d 6110 49bd
00000060: 7663 edbd 08f8 e8bd 2bff 473d a0e6 ccbd
00000070: b7a4 a7bd 6493 943b 2f8e d4bc c1a1 7b3c
00000080: 29dd d03d f05a 283e 88a9 9cbb 89fa eabd
00000090: 4469 3cbd b772 093a 4419 4c3d c37e b8bd
000000a0: 3e62 453d cd05 5dbd 2868 01be 9218 b0bc
000000b0: 7459 14be fcc3 80bd 0edd 02be 94f7 a43d
000000c0: 1c3a 42bd 8aa9 8a3d a1aa 1dbe 6243 0fbe
000000d0: 7a25 323e fcb6 95bd 6570 b23d c8a1 06be
000000e0: 31b1 dabc 97e0 f7bd 482f 6b3d 8b22 f0bd
000000f0: 36c6 1abe ad80 14be 681f c13c d6a4 743c

fc13.weight f4 [32, 36]
0.045190156 -0.054311972 -0.02868396 -0.11803043 -0.0037354827 -0.13074669 -0.15279941 0.11202185
-0.09429252 -0.06397192 -0.13441318 0.1638835 0.12766753 0.14739786 -0.06520377 -0.06260072
0.063394174 0.06587714 0.10530065 0.051171444 -0.07827246 0.022957742 0.06231203 -0.056350928
-0.03324002 0.09263065 0.13130854 -0.060923696 0.08718054 0.11667894 -0.096187815 -0.06776331
0.14656672 0.05835011 0.13885903 -0.037076496 -0.09101983 -0.16445677 0.079687975 0.15208094
0.09538281 0.15275203 -0.13444231 -0.041589838 -0.08997788 -0.013308744 -0.03939929 0.07028322
-0.019092482 -0.10565859 -0.166522 0.16260855 -0.114039406 0.11647755 -0.079368375 -0.04913207
-0.1398991 0.16124903 0.024096092 0.055075847 -0.027129035 -0.010210574 0.11958796 0.16066027
0.0040623946 0.12145579 -0.13434961 0.145996 -0.1210376 -0.110598326 -0.030614197 0.062851354
-0.10648942 0.023987135 0.0052612624 -0.060733043 -0.15933095 0.08259704 -0.11103263 -0.034624856
-0.116295815 0.021953445 -0.08466101 0.09486914 -0.08928575 0.12603289 0.15845393 -0.032170177
0.036267303 -0.09856725 0.052316707 0.024892887 0.015907407 0.1637895 0.081539236 0.05332303
-0.03967297 -0.064734995 0.099532425 0.066459656 0.049717467 -0.008884947 0.12014632 -0.0633833
0.15413672 -0.029488921 -0.11561108 -0.111922346 0.0076755686 -0.0914706 -0.07085168 0.09658389
0.05363713 -0.110113785 0.083446346 0.110722765 0.0140449405 -0.047590874 0.08794193 -0.08786327
0.13107674 0.062159937 -0.06351566 0.079154216 0.044163823 0.10468652 -0.06997341 0.06751786
0.011225423 -0.12846485 0.097730994 0.062117558 -0.14357589 0.06101662 0.05011791 -0.071184956
0.122220956 0.11392932 0.008091788 0.15595745 -0.119311236 5.747875e-05 -0.023660045 -0.05186699
0.02259938 0.04772892 -0.053059023 0.08741063 0.11126268 -0.048297983 0.12975143 0.036108315
-0.09427488 0.11014849 -0.14997673 0.068073496 -0.12953733 -0.060114942 0.11303651 -0.16334179
0.14515358 0.06401225 0.1275329 0.09317309 0.035176557 -0.10749402 0.05216881 0.12259589
-0.049965702 0.121752165 0.032279573 -0.039758466 -0.08325764 -0.07139991 -0.058737896 -0.14975417
0.011526188 0.10159948 -0.02577742 0.1561239 -0.14452147 -0.003426373 -0.050844036 -0.097325586
0.027495902 0.14991426 -0.07238495 0.11940788 0.0050305924 0.153326 -0.09208246 -0.14903948
-0.15997571 0.12128141 0.15781581 0.10999962 -0.11635228 0.046427034 -0.0950862 0.14453864
0.019213518 0.0023593109 0.045770448 0.13236105 -0.11981972 0.09744291 0.05098015 0.04430946
-0.10601493 0.13545935 0.015894115 0.08736879 0.064391896 -0.08657758 -0.1532427 -0.1217327
-0.054402612 0.0034082334 -0.056174874 0.11517942 0.15058303 0.08233327 0.00923727 -0.00036011141
-0.15892677 0.04373179 -0.1404176 0.15908864 -0.027427495 0.13664162 0.004911383 0.14278749
-0.09111905 -0.059345804 -0.0070218644 0.04752491 -0.05861485 0.12227126 -0.14336443 0.008201322
-0.1295579 0.10280772 0.01955847 -0.078623615 0.12305629 -0.12442708 0.1466915 -0.06398561
0.11524852 -0.04092425 -0.060488343 -0.08532137 -0.08227488 0.14313173 0.118161045 -0.09789221
00000000: 5019 393d 3b76 5ebd a0fa eabc f0b9 f1bd
00000010: 00cf 74bb 76e2 05be 7377 1cbe b66b e53d
00000020: 701c c1bd b603 83bd 9ca3 09be 14d1 273e
00000030: 47bb 023e 77ef 163e 8e89 85bd ce34 80bd
00000040: ced4 813d 98ea 863d dea7 d73d 2699 513d
00000050: 504d a0bd e011 bc3c e63a 7f3d 3bd0 66bd
00000060: b026 08bd 23b5 bd3d bf75 063e 208b 79bd
00000070: b68b b23d 5ef5 ee3d 1efe c4bd 7ec7 8abd
00000080: 9615 163e 8600 6f3d 1031 0e3e 86dd 17bd
00000090: 9b68 babd 5b67 28be 7333 a33d 1bbb 1b3e
000000a0: 1058 c33d 076b 1c3e 3fab 09be 1b5a 2abd
000000b0: 5346 b8bd eb0c 5abc 2661 21bd a6f0 8f3d
000000c0: d667 9cbc 8863 d8bd be84 2abe db82 263e
000000d0: 7e8d e9bd c88b ee3d e38b a2bd b63e 49bd
000000e0: b641 0fbe 771e 253e 2b65 c53c 3697 613d
000000f0: b63d debc 404a 27bc 88ea f43d 2084 243e
00000100: d61d 853b d0bd f83d f292 09be fa7f 153e
00000110: 90e2 f7bd 6081 e2bd a0ca fabc 36b8 803d
00000120: 2017 dabd ab80 c43c ab66 ac3b 36c3 78bd
00000130: a727 23be a328 a93d 1365 e3bd cbd2 0dbd
00000140: 802c eebd b6d7 b33c c062 adbd c04a c23d
00000150: 73db b6bd c40e 013e bf41 223e e0c4 03bd
00000160: 068d 143d a0dd c9bd 0b4a 563d 2bec cb3c
00000170: 4050 823c 6fb8 273e 0bfe a63d 4069 5a3d
00000180: 2080 22bd c893 84bd a8d7 cb3d 001c 883d
00000190: 8ba4 4b3d 2b92 11bc 460f f63d 1bcf 81bd
000001a0: 04d6 1d3e c092 f1bc 80c5 ecbd 8b37 e5bd
000001b0: 5683 fb3b f054 bbbd b01a 91bd c6cd c53d
000001c0: 9bb2 5b3d 5683 e1bd ebe5 aa3d 9ec2 e23d
000001d0: c01c 663c a6ee 42bd e61a b43d a8f1 b3bd
000001e0: fb38 063e 6b9b 7e3d 8014 82bd 9b1b a23d
000001f0: 20e5 343d e365 d63d 384e 8fbd ce46 8a3d
00000200: d6ea 373c 4a8c 03be 3027 c83d fb6e 7e3d
00000210: 8f05 13be 90ec 793d 7048 4d3d 6bc9 91bd
00000220: fb4e fa3d c653 e93d 6b93 043c 4fb3 1f3e
00000230: 7359 f4bd 5615 7138 b6d2 c1bc 7b72 54bd
00000240: 5622 b93c 667f 433d 6b54 59bd 5804 b33d
00000250: b0dd e33d 1bd4 45bd 8fdd 043e 50e6 133d
00000260: 3013 c1bd 8895 e13d 8093 19be 1e6a 8b3d
00000270: 6fa5 04be 163b 76bd b07f e73d 1243 27be
00000280: 24a3 143e db18 833d fc97 023e 88d1 be3d
00000290: 4b15 103d d325 dcbd f6ae 553d 8e13 fb3d
000002a0: d6a8 4cbd 3359 f93d 9637 043d c6d9 22bd
000002b0: fb82 aabd 1e3a 92bd 2697 70bd 2859 19be
000002c0: 56d8 3c3c 6313 d03d 2b2b d3bc f2de 1f3e
000002d0: 70fd 13be 008d 60bb d641 50bd a352 c7bd
000002e0: 163f e13c 2083 193e 903e 94bd 1e8c f43d
000002f0: abd7 a43b 7e01 1d3e bb95 bcbd ce9d 18be
00000300: acd0 23be 6362 f83d 789a 213e 7b47 e13d
00000310: 1b4a eebd 462a 3e3d 8ebc c2bd f001 143e
00000320: ab65 9d3c ab9e 1a3b cb79 3b3d a889 073e
00000330: 0b64 f5bd 2690 c73d 90d0 503d d67d 353d
00000340: 5b1e d9bd dbb5 0a3e 6034 823c 68ee b23d
00000350: e6df 833d 964f b1bd a8eb 1cbe fe4e f9bd
00000360: 46d5 5ebd ab5c 5f3b a017 66bd 30e3 eb3d
00000370: 7032 1a3e 589e a83d eb57 173c 56cd bcb9
00000380: b3bd 22be 1b20 333d a2c9 0fbe 22e8 223e
00000390: a0af e0bc c8eb 0b3e abef a03b e236 123e
000003a0: a09c babd 9614 73bd ab17 e6bb 7ba9 423d
000003b0: 2016 70bd 5b69 fa3d 20ce 12be d65e 063c
000003c0: d3aa 04be db8c d23d 1639 a03c 6b05 a1bd
000003d0: f004 fc3d a0d3 febd 4c36 163e e30a 83bd
000003e0: 6b07 ec3d 30a0 27bd a0c2 77bd f8bc aebd
000003f0: bb7f a8bd 2091 123e 6bfe f13d b67b c8bd

fc13.bias f4 [32]
-0.09212966 -0.11659161 0.062232222 0.120471984 0.13036945 0.030578129 -0.055791736 -0.08261033
0.11675179 -0.12916774 0.11929511 0.009928763 0.13645148 0.082604036 -0.13613455 -0.14251721
0.14814015 -0.015956936 -0.09230803 -0.086996846 -0.14176394 0.16958705 0.021679834 0.11592073
-0.13289958 -0.06798114 -0.10337927 0.032956243 0.05687076 0.1118083 0.03550252 0.14045729
00000000: 7aae bcbd 95c7 eebd 37e7 7e3d 04ba f63d
00000010: 927f 053e fc7e fa3c e085 64bd 9b2f a9bd
00000020: 901b ef3d 8c44 04be ff50 f43d 40ac 223c
00000030: f0b9 0b3e 4e2c a93d db66 0bbe 08f0 11be
00000040: 0db2 173e 1fb8 82bc fe0b bdbd 672b b2bd
00000050: 912a 11be 3aa8 2d3e e899 b13c d967 ed3d
00000060: d416 08be b239 8bbd 83b8 d3bd 20fd 063d
00000070: 50f1 683d c0fb e43d 176b 113d 09d4 0f3e

fc14.weight f4 [32, 36]
0.1663091 0.15292265 0.108293876 -0.10027961 0.06545449 0.053648688 -0.13320406 -0.062172942
0.09281777 -0.031627398 0.11537833 0.079919524 0.15236694 -0.13958018 0.047970667 0.024706451
0.045409363 0.08247399 -0.15315259 0.08114979 0.13834777 0.0061892746 0.16009858 0.15235345
0.15284781 -0.05538643 -0.09855856 0.13903181 0.017144188 -0.05237989 0.053362608 -0.1559269
0.117455594 -0.036624447 0.009275657 -0.0021363643 0.0022156725 -0.108359054 -0.12960026 0.14836085
0.15059008 0.15679036 0.13278529 -0.13515176 0.11095855 0.05953016 0.041622613 0.024206536
0.038715035 0.14690086 -0.048524324 0.09479056 0.009991769 0.0024339322 0.080177054 -0.10063676
-0.053900514 0.0066203065 0.10328521 0.032133855 -0.050950143 0.15441765 -0.14105308 0.11289798
-9.6083626e-05 -0.08591062 -0.08418073 -0.103935815 -0.059547648 0.06606148 -0.12870388 0.12016896
0.11714387 0.07806373 0.12704654 0.06610243 0.03216096 0.1592188 0.06426196 0.059390023
-0.17241623 0.10955701 0.11280492 0.11360269 -0.04514859 -0.1029957 -0.023923768 -0.018796954
0.12785518 0.081667684 -0.0033528933 -0.16802242 -0.026066821 -0.021788644 -0.15259387 0.15957867
-0.0038021903 -0.098628655 0.16352887 0.12481974 0.10645829 0.101836935 -0.052630596 0.14872362
0.15176977 -0.045705978 0.12816872 0.058329087 -0.092690244 -0.1042395 -0.09308724 -0.12390799
0.030222032 -0.1390566 -0.07813006 -0.05911293 -0.1677046 0.115913175 0.15420868 -0.05641636
0.1722907 -0.0721666 0.08797231 -0.044204965 -0.050755836 -0.025731614 0.1108014 -0.056334943
-0.0684423 0.030224228 -0.15789409 -0.16100813 0.15400116 -0.16598113 0.058374822 0.121942334
0.13166434 0.003561062 -0.04991625 -0.16032128 0.03269443 0.15609848 -0.028234031 -0.005648337
0.04260783 -0.028796798 -0.14899091 -0.16242714 -0.03064313 -0.085201606 -0.06176521 -0.12493966
0.056816258 0.12716897 -0.04761417 -0.016269352 -0.15877451 0.05155097 -0.0636865 0.13605757
0.021201247 0.13186082 -0.11257289 0.11025489 -0.09297463 0.16387077 -0.004261072 0.1379003
0.02241009 0.00062998524 0.09173842 -0.06145984 -0.036248352 -0.0013171837 -0.048279554 -0.026210623
0.1626175 0.061471943 -0.08358936 -0.029908806 0.08057617 -0.07606817 0.12687872 0.014685777
-0.10674926 -0.021958128 0.04387532 0.163199 0.002251117 -0.15213619 0.030042207 -0.025366414
-0.11450854 -0.09498183 -0.0024480438 0.04477756 -0.01643227 -0.049368232 -0.11797294 0.06766353
0.037026946 0.04429748 -0.025545582 -0.1102148 0.13578805 -0.008770979 0.13082272 0.12010752
0.16271117 0.14925323 -0.10440464 0.14313431 -0.13672307 -0.0839206 0.12850758 0.044620648
-0.12109228 0.14255151 -0.098419055 -0.08893678 0.10369457 -0.08670563 0.15507452 0.122843124
0.016395355 0.10630081 -0.14438525 -0.023557166 -0.15247709 0.119962364 0.15553905 0.16166209
-0.12036739 0.10431581 0.11009416 0.07596568 -0.012821238 -0.083294466 0.07072946 -0.14820108
-0.09328177 0.0020736274 -0.018075818 -0.074475564 0.14833702 -0.12941545 -0.13299425 -0.14672525
-0.13164125 0.08745837 0.06568076 -0.11093813 0.061377693 0.044111773 0.15445046 0.096902825
00000000: ef4c 2a3e c197 1c3e 2ec9 dd3d 655f cdbd
00000010: 010d 863d babe 5b3d a566 08be 0ea9 7ebd
00000020: 3e17 be3d bb8b 01bd 794b ec3d d9ac a33d
00000030: 1406 1c3e 1bee 0ebe e47c 443d 2f65 ca3c
00000040: 2bff 393d 20e8 a83d 08d4 1cbe dc31 a63d
00000050: 0aab 0d3e 66cf ca3b e2f0 233e 8b02 1c3e
00000060: 2384 1c3e e2dc 62bd 12d9 c9bd 5b5e 0e3e
00000070: f871 8c3c 4c8c 56bd c092 5a3d 4dab 1fbe
00000080: 8f8c f03d 8403 16bd edf8 173c 3f02 0cbb
00000090: d134 113b 5aeb ddbd eeb5 04be e8eb 173e
000000a0: 4934 1a3e a78d 203e def8 073e 3965 0abe
000000b0: 3c3e e33d e6d5 733d 797c 2a3d c94c c63c
000000c0: a893 1e3d 2e6d 163e 71c1 46bd 8e21 c23d
000000d0: 84b4 233c 9b82 1f3b de33 a43d a51a cebd
000000e0: c9c6 5cbd 28ef d83b 3287 d33d ca9e 033d
000000f0: 19b1 50bd a91f 1e3e 3870 10be 0e37 e73d
00000100: 8180 c9b8 e8f1 afbd f266 acbd 4ddc d4bd
00000110: 3ce8 73bd 3e4b 873d f3ca 03be 251b f63d
00000120: 20e9 ef3d e0df 9f3d 7d18 023e b660 873d
00000130: 36bb 033d 410a 233e c69b 833d f442 733d
00000140: e18d 30be 6d5f e03d 4406 e73d 87a8 e83d
00000150: baed 38bd 69ef d2bd c7fb c3bc 12fc 99bc
00000160: 78ec 023e 6341 a73d 37bc 5bbb 120e 2cbe
00000170: 168a d5bc 197e b2bc 9141 1cbe 9768 233e
00000180: 2b2e 79bb d2fd c9bd 1d74 273e 7ea1 ff3d
00000190: ce06 da3d e28f d03d 2e93 57bd 014b 183e
000001a0: 8969 1b3e 3136 3bbd a93e 033e 7bea 6e3d
000001b0: 62d4 bdbd 857b d5bd 86a4 bebd 79c3 fdbd
000001c0: 3294 f73c da64 0ebe a702 a0bd 6620 72bd
000001d0: c1ba 2bbe e363 ed3d e1e8 1d3e d714 67bd
000001e0: f96c 303e 15cc 93bd d42a b43d 4410 35bd
000001f0: 5ae5 4fbd 1bcb d2bc d8eb e23d 78bf 66bd
00000200: 7a2b 8cbd cd98 f73c fdae 21be 51df 24be
00000210: 7bb2 1d3e f5f6 29be 701a 6f3d e7bc f93d
00000220: 04d3 063e b560 693b fb74 4cbd 432b 24be
00000230: 98ea 053d 48d8 1f3e 0e4b e7bc af15 b9bb
00000240: 8c85 2e3d 43e7 ebbc 1391 18be 4d53 26be
00000250: 4d07 fbbc 2e7e aebd 84fd 7cbd 5de0 ffbd
00000260: 2ab8 683d 9538 023e 1307 43bd 4e47 85bc
00000270: c995 22be 1c27 533d 116e 82bd ad52 0b3e
00000280: 3dae ad3c 8606 073e 9e8c e6bd 51cd e13d
00000290: 7c69 bebd bdcd 273e 76a0 8bbb bc35 0d3e
000002a0: 5d95 b73c 9825 253a 5ae1 bb3d 50bd 7bbd
000002b0: 2779 14bd 5aa5 acba c8c0 45bd a9b7 d6bc
000002c0: 3485 263e 01ca 7b3d e630 abbd 5003 f5bc
000002d0: 1e05 a53d a1c9 9bbd 7fec 013e 9d9c 703c
000002e0: 5b9f dabd 88e1 b3bc 9cb6 333d a31d 273e
000002f0: 7a87 133b 97c9 1bbe 131b f63c 3acd cfbc
00000300: 7483 eabd d585 c2bd 5c6f 20bb ad68 373d
00000310: f89c 86bc 5836 4abd cc9b f1bd 2d93 8a3d
00000320: 91a9 173d 4671 353d f844 d1bc 4cb8 e1bd
00000330: 060c 0b3e 27b4 0fbc 64f6 053e eefa f53d
00000340: c29d 263e d7d5 183e 1ad2 d5bd cd91 123e
00000350: 2201 0cbe 90de abbd 7e97 033e 24c4 363d
00000360: 3bff f7bd 06f9 113e ee8f c9bd 7d24 b6bd
00000370: d25d d43d b992 b1bd dbcb 1e3e 2d95 fb3d
00000380: 8d4f 863c 3db4 d93d bad9 13be f5fa c0bc
00000390: f422 1cbe d4ae f53d a145 1f3e bf8a 253e
000003a0: 2e83 f6bd 87a3 d53d 0c79 e13d e593 9b3d
000003b0: 2b10 52bc 4a96 aabd 9bda 903d 06c2 17be
000003c0: 830a bfbd b2e5 073b bd13 94bc a586 98bd
000003d0: a9e5 173e 7c85 04be a52f 08be 253f 16be
000003e0: f7cc 06be 601d b33d a283 863d 8833 e3bd
000003f0: 2d67 7b3d 8cae 343d 4328 1e3e fd74 c63d

fc14.bias f4 [32]
0.16484125 -0.04322389 0.09561824 -0.086333916 -0.019813735 0.035201017 0.08187456 0.1503
0.069740176 -0.0014125417 -0.07306929 0.025804453 0.08430056 -0.09463796 -0.12365188 -0.083233185
0.11351318 0.086324506 0.058682 0.020637646 0.14345929 -0.049006734 0.105084375 -0.16089582
0.00907041 -0.092434905 -0.020910619 0.101656094 -0.08842614 0.042283338 -0.13042285 -0.112101875
00000000: 25cc 283e 890b 31bd 7fd3 c33d d6cf b0bd
00000010: 6a50 a2bc f12e 103d d9ad a73d 3ee8 193e
00000020: f0d3 8e3d 0925 b9ba 5aa5 95bd dc63 d33c
00000030: c6a5 ac3d 8cd1 c1bd 323d fdbd 2976 aabd
00000040: 9979 e83d e7ca b03d 895c 703d 4810 a93c
00000050: fee6 123e 49bb 48bd 7a36 d73d e0c1 24be
00000060: 0f9c 143c 834e bdbd bf4c abbc 1231 d03d
00000070: c418 b5bd 4b31 2d3d 918d 05be ab95 e5bd

fc2.weight f4 [128, 130]
0.05549092 0.044490337 0.01988239 -0.04231858 -0.04288438 -0.063726865 -0.022409748 -0.02943492
-0.048705168 -0.094791315 -0.008095573 -0.04901892 0.0070956713 -0.08499355 -0.08212345 -0.0004152845
0.028124863 -0.03574185 -0.054620765 0.009731423 0.057035726 0.07233022 0.011472766 0.030977318
-0.03664076 0.07812026 -0.043151364 0.06947075 -0.061263625 0.06852524 0.022117065 0.03169806
-0.028867807 -0.07412292 -0.0005011702 -0.041449502 0.0733223 -0.0023241285 0.002032014 -0.062597044
-0.092538625 0.046626054 -0.015461197 -0.085877806 -0.0041253036 0.02166682 0.075642504 -0.030298036
0.06944808 -0.04595071 -0.044417005 0.07560704 -0.07990601 0.06697165 0.056182425 -0.095829375
0.020785104 0.05083741 -0.06371625 0.061485343 -0.036130276 -0.01446759 0.05131744 0.06675855
-0.049292676 -0.028555516 -0.0834222 -0.09306731 -0.06363583 0.06619421 -0.07137664 -0.008870128
-0.046726603 0.050864547 0.065086305 0.034664087 -0.08853484 0.043124177 0.021418346 -0.027155304
-0.0007854892 0.069971114 0.03744166 0.0124780685 0.046375345 0.02710652 -0.09363033 0.027582802
0.066008344 -0.086576395 -0.03478133 -0.06443824 -0.062013924 0.010723839 0.0699276 -0.033473834
0.05486804 0.018591119 -0.044543937 0.013293754 0.063938655 -0.08267913 0.016291209 0.045065414
0.045274585 -0.062941685 0.04894895 -0.00034752503 -0.04293957 0.0047646887 -0.08277313 -0.059917167
0.036095325 0.018165626 -0.036085863 0.030584464 -0.07149638 0.008668004 0.0397409 0.05032893
-0.057777066 -0.039074037 -0.055187047 -0.0049799415 0.011842589 0.0035997848 -0.031874765 -0.044502113
0.019813238 -0.0861599 0.038431305 -0.028141338 -0.071266115 -0.06669725 -0.07224852 -0.060525935
0.057543922 -0.063766554 -0.013752118 -0.029735755 -0.017135764 -0.075086296 -0.049360327 -0.002993368
0.05379948 -0.06634552 0.037422583 -0.024887966 0.028352175 -0.031359076 -0.0036863163 0.05867515
-0.07869611 0.049265884 -0.038276058 0.076790564 -0.033504184 -0.062133525 -0.007965432 0.042524945
0.02588297 0.05735252 -0.036057144 0.04406149 -0.06321055 -0.022568192 -0.047239095 0.05875449
-0.07698566 -0.086981624 0.050880942 0.054509442 0.0527247 0.06917605 -0.07441713 -0.034395408
-0.07820802 0.030460233 -0.0011397945 0.04215015 -0.0020418323 0.047834855 -0.03464952 0.0051659774
0.07775965 -0.07475638 0.01805143 -0.061023176 0.068201125 0.011817241 -0.08289323 0.05906356
0.029496029 0.08610219 0.035324164 -0.005931318 -0.030030493 0.019959886 0.035687935 0.08041755
0.07560564 0.046061676 -0.02345913 -0.05672478 0.015609832 -0.010185329 -0.08939925 -0.019181602
0.02293804 0.031749174 0.08168206 -0.08290049 0.05045427 0.067997575 0.005504217 0.03507785
-0.085701376 0.0123614 0.0031170666 0.049541675 0.056626853 -0.06460685 -0.03194965 0.014605356
-0.07383235 0.006795406 0.082800366 0.038478985 0.081470996 -0.03699404 0.0028301205 0.030273037
0.03216266 -0.0022209059 0.07381834 0.049589306 0.040590037 0.035339925 -0.060660757 -0.02085974
-0.06979377 0.06624402 -0.04484767 0.0071023903 0.014613196 -0.024641993 -0.08371175 -0.0849846
0.00221516 -0.005131178 -0.069942415 0.029295648 -0.064823 0.030953864 -0.088943794 0.008401736
00000000: 724a 633d 803b 363d 65e0 a23c 3f56 2dbd
00000010: 88a7 2fbd 3b83 82bd a694 b7bc 8021 f1bc
00000020: 127f 47bd f321 c2bd 4ba3 04bc 10c8 48bd
00000030: ce82 e83b 1911 aebd 5730 a8bd 8bba d9b9
00000040: 1d66 e63c 0c66 12bd 06ba 5fbd 8c70 1f3c
00000050: 4b9e 693d de21 943d 45f8 3b3c 25c4 fd3c
00000060: 9f14 16bd 84fd 9f3d 7cbf 30bd ae46 8e3d
00000070: 91ef 7abd f656 8c3d d92e b53c d3d5 013d
00000080: 2e7c ecbc c2cd 97bd f660 03ba f4c6 29bd
00000090: 012a 963d 6850 18bb 8a2b 053b e132 80bd
000000a0: e484 bdbd f6fa 3e3d f650 7dbc b4e0 afbd
000000b0: 8e2d 87bb 9d7e b13c 75ea 9a3d 9633 f8bc
000000c0: cc3a 8e3d d036 3cbd 9bee 35bd ddd7 9a3d
000000d0: c3a5 a3bd 6f28 893d 8b1f 663d 3142 c4bd
000000e0: 8645 aa3c e33a 503d aa7d 82bd 0ed8 7b3d
000000f0: 57fd 13bd 7809 6dbc 3c32 523d b5b8 883d
00000100: 1ee7 49bd 42ed e9bc 42d9 aabd 139a bebd
00000110: 8153 82bd d490 873d ea2d 92bd 0354 11bc
00000120: 6564 3fbd 5857 503d f84b 853d eefb 0d3d
00000130: c151 b5bd faa2 303d 8775 af3c cd74 debc
00000140: 4ae9 4dba 044d 8f3d 6d5c 193d d070 4c3c
00000150: 13f4 3d3d 7e0e de3c 42c1 bfbd 54f5 e13c
00000160: 622f 873d f74e b1bd de76 0ebd 32f8 83bd
00000170: 5002 7ebd 0ab3 2f3c 3436 8f3d dc1b 09bd
00000180: 4fbd 603d 674c 983c b473 36bd 0cce 593c
00000190: 45f2 823d ad53 a9bd 2475 853c 8396 383d
000001a0: d871 393d 92e7 80bd b27e 483d 0534 b6b9
000001b0: 67e1 2fbd 1b21 9c3b f584 a9bd b46b 75bd
000001c0: b1d8 133d 14d0 943c c5ce 13bd 458c fa3c
000001d0: b26c 92bd 3e04 0e3c 5bc7 223d b525 4e3d
000001e0: a5a7 6cbd 190c 20bd d00b 62bd c72e a3bb
000001f0: 6b07 423c 5eea 6b3b 1d8f 02bd d947 36bd
00000200: 5f4f a23c 9a74 b0bd 256a 1d3d aa88 e6bc
00000210: f8f3 91bd 9198 88bd 08f7 93bd 0bea 77bd
00000220: 2db3 6b3d 0a98 82bd 9050 61bc 6698 f3bc
00000230: 4d60 8cbc d8c6 99bd 0e2e 4abd 622c 44bb
00000240: d85c 5c3d 29e0 87bd 6c48 193d d9e1 cbbc
00000250: d242 e83c 6072 00bd 2096 71bb 5b55 703d
00000260: 6d2b a1bd 06cb 493d 5bc7 1cbd 5f44 9d3d
00000270: af3b 09bd b97f 7ebd 7181 02bc a32e 2e3d
00000280: 8608 d43c 7aea 6a3d a8b0 13bd d279 343d
00000290: 8874 81bd eee0 b8bc c87d 41bd 8ca8 703d
000002a0: a8aa 9dbd 6c23 b2bd 8968 503d 4b45 5f3d
000002b0: dbf5 573d 2cac 8d3d 0268 98bd 33e2 0cbd
000002c0: 872b a0bd bd87 f93c 2865 95ba a3a5 2c3d
000002d0: 43d0 05bb 7bee 433d a8ec 0dbd 5c47 a93b
000002e0: 7440 9f3d df19 99bd 98e0 933c 70f3 79bd
000002f0: 08ad 8b3d 1a9d 413c edc3 a9bd a2ec 713d
00000300: a8a1 f13c 5856 b03d 12b0 103d 805b c2bb
00000310: 8202 f6bc ea82 a33c 832d 123d f5b1 a43d
00000320: 21d7 9a3d 2bab 3c3d 5d2d c0bc 3e58 68bd
00000330: 61c0 7f3c 5ee0 26bc f416 b7bd bc22 9dbc
00000340: 8ee8 bb3c 6c0b 023d ed48 a73d bbc7 a9bd
00000350: 23a9 4e3d 5042 8b3d b85c b43b cbad 0f3d
00000360: 3484 afbd 7887 4a3c b347 4c3b 36ec 4a3d
00000370: 8ff1 673d 9950 84bd a3dd 02bd 4e4b 6f3c
00000380: 6a35 97bd ffab de3b 3d93 a93d 249c 1d3d
00000390: 44da a63d 1087 17bd 8b79 393b 29ff f73c
000003a0: febc 033d 9e8c 11bb 122e 973d 281e 4b3d
000003b0: bd41 263d 99c0 103d 6a77 78bd 0ce2 aabc
000003c0: 09f0 8ebd f2aa 873d 31b2 37bd 2bbb e83b
000003d0: 306c 6f3c 01de c9bc 1171 abbd 680c aebd
000003e0: 382c 113b 7123 a8bb f83d 8fbd 6dfd ef3c
000003f0: ecc1 84bd f592 fd3c 2a28 b6bd 6fa7 093c

fc2.bias f4 [128]
0.053938314 3.489424e-05 -0.019470949 0.057719897 -0.034841504 -0.027412593 -0.08274532 -0.01756988
0.045363292 -0.06970354 0.0019081626 -0.032044224 -0.027747884 0.06795664 -0.040692594 0.050350726
0.028568886 0.06722771 0.06484832 -0.088941105 0.09330295 -0.05598258 -0.081072256 -0.04543124
-0.0046286574 0.04679737 0.0681145 -0.050490428 -0.043833956 0.07085722 0.032251168 -0.010735031
-0.056423776 -0.038744207 -0.050054 0.013245322 0.020388434 0.079508945 -0.040114354 0.011838683
0.060582805 -0.07012047 0.08139931 -0.005976226 -0.03392664 0.0026470793 0.055196688 0.0068132184
-0.00938449 0.06910977 0.047351878 0.08026406 0.054745037 -0.043415427 -0.037124388 -0.0018451471
-0.013018438 -0.0751712 -0.02376862 -0.077352755 0.08327226 -0.010180628 0.087222695 -0.085413635
0.026845835 0.05104726 0.07925828 0.043050777 0.03872711 -0.028163718 0.039737687 -0.04704236
-0.014209693 0.058868602 0.045111537 0.08746233 0.08343152 -0.008894282 -0.035390835 -0.05672352
0.03352544 -0.05865335 0.03689334 -0.045301873 -0.055742122 0.037561256 -0.070342444 -0.0720084
-0.006126399 0.060791537 -0.074505724 -0.060678482 0.076570824 0.047999993 -0.04114082 0.036677875
-0.0046493514 -0.01694388 0.0323939 -0.0500049 -0.055906076 -0.04524955 0.010968253 0.09398438
0.051904228 -0.040110536 0.03535547 -0.00889942 -0.04759568 -0.0925603 0.0066566113 0.007991465
-0.050848626 -0.03257383 -0.06636841 0.04419485 -0.06425389 0.037142318 -0.014253555 0.024069387
0.0116636185 -0.0051074577 0.08983069 -0.06248082 -0.05312889 -0.016311333 -0.0049960003 0.07459238
00000000: 6cee 5c3d 685b 1238 8a81 9fbc b36b 6c3d
00000010: f7b5 0ebd 6090 e0bc 6176 a9bd b5ee 8fbc
00000020: dcce 393d bbc0 8ebd 501b fa3a ce40 03bd
00000030: 884f e3bc da2c 8b3d 47ad 26bd 903c 4e3d
00000040: 4c09 ea3c aeae 893d 32cf 843d c126 b6bd
00000050: 9e15 bf3d fd4d 65bd 3609 a6bd 1c16 3abd
00000060: feab 97bb 99ae 3f3d 9d7f 8b3d 0dcf 4ebd
00000070: 3c8b 33bd 971d 913d cd19 043d fce1 2fbc
00000080: 9e1c 67bd 3fb2 1ebd 6c05 4dbd e802 593c
00000090: a505 a73c 96d5 a23d f34e 24bd 09f7 413c
000000a0: ad25 783d 529b 8fbd aeb4 a63d 38d4 c3bb
000000b0: a9f6 0abd 9f7a 2d3b ec15 623d 6b41 df3b
000000c0: 67c1 19bc 6c89 8d3d 0bf4 413d 7c61 a43d
000000d0: 553c 603d 60d4 31bd be0f 18bd ddd8 f1ba
000000e0: 494b 55bc 5cf3 99bd 69b6 c2bc 1f6b 9ebd
000000f0: a68a aa3d a6cc 26bc d0a1 b23d 58ed aebd
00000100: cceb db3c ef16 513d 2a52 a23d 0356 303d
00000110: 51a0 1e3d 99b7 e6bc fcc3 223d 7daf 40bd
00000120: c6cf 68bc 3420 713d e0c6 383d 731f b33d
00000130: 25de aa3d 53b9 11bc fbf5 10bd ec56 68bd
00000140: f951 093d 7f3e 70bd 791d 173d 758e 39bd
00000150: da51 64bd d5d9 193d b30f 90bd 2479 93bd
00000160: f6bf c8bb 8c00 793d 7596 98bd 008a 78bd
00000170: 2ad1 9c3d a49b 443d 4783 28bd 8a3b 163d
00000180: 9659 98bb e4cd 8abc 77af 043d f0d1 4cbd
00000190: c5fd 64bd 9857 39bd 30b4 333c e27a c03d
000001a0: 8799 543d f24a 24bd e6d0 103d dfce 11bc
000001b0: b0f3 42bd 4190 bdbd b41f da3b a2ee 023c
000001c0: a646 50bd 236c 05bd 29ec 87bd a905 353d
000001d0: 8b97 83bd 8b22 183d be87 69bc 2a2d c53c
000001e0: c318 3f3c 765c a7bb 27f9 b73d e3eb 7fbd
000001f0: ae9d 59bd 589f 85bc 7db5 a3bb e4c3 983d

fc3.weight f4 [37, 128]
0.027343115 0.06049564 -0.05398893 0.056164533 -0.08107827 0.049031775 -0.013125525 0.0007257632
0.039857768 0.06087488 -0.016415313 0.025857665 -0.08648535 -0.027966974 -0.060613632 -0.034420524
0.026062103 -0.06844305 0.045435496 0.0019089382 -0.042356662 -0.09309498 0.025998382 -0.06531066
0.049187705 0.03882701 -0.07059475 -0.09801546 0.02423432 -0.10250283 0.028273474 0.06790103
-0.010268182 -0.03215733 0.05149599 0.039818574 -0.019977175 -0.058146402 -0.070978016 0.0061965575
-0.09019433 -0.07092558 -0.082747 -0.004973077 0.005685051 -0.09667959 -0.036605906 -0.07691498
-0.07706601 0.068629935 0.014678861 -0.0016103798 0.0383079 -0.03803697 -0.04190117 0.012868965
0.06717681 -0.074587375 -0.08587394 0.023651553 0.01671251 -0.00024761495 -0.044208843 0.018259473
-0.060527112 0.03610588 0.0085839005 0.023795832 -0.083717816 -0.0067077354 -0.0012009499 -0.07076492
-0.072960414 0.011421588 -0.021868093 0.027628537 0.038607743 -0.049194187 -0.08263886 -0.03160159
0.020396434 0.075507805 -0.06167505 -0.0065283263 -0.0069231135 0.07680535 -0.0459482 -0.043350983
0.014233317 0.06285356 -0.0106024165 -0.07605053 0.04016734 0.046587672 -0.09801541 0.01711891
-0.062764816 0.008257614 -0.06139179 0.072826356 -0.06755037 -0.00488443 -0.045449354 0.062240984
-0.03544632 0.04075125 -0.038985595 0.08442454 0.0007406702 -0.09084128 -0.08597542 0.055983514
0.081152946 -0.107950635 -0.060972758 -0.00990961 0.018348176 0.059194993 0.07854535 -0.003285697
-0.08418434 -0.011741389 -0.034074876 -0.0648067 0.0035125334 -0.08762298 -0.028771123 0.030191258
0.022576967 0.0033135072 -0.07322393 -0.08098092 0.0036251114 0.015616403 0.05192427 -0.07662001
-0.020022513 -0.038214266 -0.034212198 0.040181164 0.016233563 0.067063 -0.04523756 -0.047139816
-0.066957094 -0.035389755 0.0542911 0.019475475 0.04781997 -0.10645118 -0.08903466 0.01821165
-0.06213953 -0.11092404 0.056792993 -0.094313934 -0.030090649 0.019597078 0.049193546 0.06692196
0.051244672 0.010697889 0.008854088 0.07485431 -0.007572225 -0.017752161 -0.057353225 -0.0047674743
0.06893964 -0.080276325 -0.11314208 -0.0980409 -0.09904981 -0.052078284 0.08388465 -0.08915884
-0.10268103 0.02299504 -0.08628511 0.008416023 -0.081449844 -0.07631226 -0.06742484 -0.0627107
0.041556377 0.07728678 -0.046333123 -0.08119684 -0.08765859 -0.022479655 -0.08088595 -0.06389088
0.041268013 0.06921243 -0.029871639 0.082731076 0.0395308 -0.0730951 0.022883818 0.04659475
-0.055417195 -0.051322386 -0.0937678 -0.018152267 -0.03605052 0.00188153 -0.002764936 0.00012609034
-0.021764925 -0.019971535 -0.09294535 -0.06733495 -0.0058802934 0.07717657 -0.012510291 -0.04745055
-0.09298701 4.6213274e-05 0.07569597 -0.005775245 -0.09516712 0.071743734 -0.05531199 -0.075017065
0.076447785 0.053581342 0.014812282 -0.0240193 0.022983287 -0.100412674 0.042652406 -0.022919625
-0.02623461 -0.039256964 -0.045778684 0.03330435 0.047837954 -0.017284673 0.07227583 0.013350143
0.038483165 0.049974963 0.071329944 0.009615328 -0.0022266994 0.048003495 0.07878385 -0.04202845
0.00191865 0.008157389 -0.06704864 0.013220781 0.081150755 -0.007298477 -0.040111024 0.027562277
00000000: abfe df3c 47ca 773d 7f23 5dbd c80c 663d
00000010: 5d0c a6bd 8bd5 483d 710c 57bc 2541 3e3a
00000020: e641 233d f057 793d 6879 86bc 74d3 d33c
00000030: 3b1f b1bd ff1a e5bc 0046 78bd 89fc 0cbd
00000040: 3180 d53c df2b 8cbd 921a 3a3d 5635 fa3a
00000050: 2e7e 2dbd 95a8 bebd 8ffa d43c 98c1 85bd
00000060: 0c79 493d 1209 1f3d fb93 90bd 54bc c8bd
00000070: 0d87 c63c 01ed d1bd c69d e73c b20f 8b3d
00000080: e03b 28bc 68b7 03bd 76ed 523d cd18 233d
00000090: 2ca7 a3bc ec2a 6ebd ec5c 91bd 7e0c cb3b
000000a0: ceb7 b8bd 6e41 91bd 4277 a9bd 32f5 a2bb
000000b0: aa49 ba3b f3ff c5bd 13f0 15bd 9a85 9dbd
000000c0: c9d4 9dbd da8d 8c3d 9b7f 703c 6113 d3ba
000000d0: bfe8 1c3d a7cc 1bbd 90a0 2bbd 5ad8 523c
000000e0: ff93 893d 44c1 98bd adde afbd e7c0 c13c
000000f0: ace8 883c 51d2 81b9 5514 35bd e494 953c
00000100: 47eb 77bd c2e3 133d 7da3 0c3c 7aef c23c
00000110: 3f74 abbd 90cc dbbb 3169 9dba 33ed 90bd
00000120: 456c 95bd 9d21 3b3c b724 b3bc 3e55 e23c
00000130: 2723 1e3d d87f 49bd 903e a9bd ab70 01bd
00000140: 6c16 a73c d6a3 9a3d fa9e 7cbd 92eb d5bb
00000150: 49db e2bb 204c 9d3d 2e34 3cbd cd90 31bd
00000160: dc32 693c 5eb9 803d c2b5 2dbc 61c0 9bbd
00000170: 8286 243d b7d2 3e3d 4ebc c8bd f53c 8c3c
00000180: d78a 80bd f24a 073c f575 7bbd fc25 953d
00000190: d957 8abd 920d a0bb 1a29 3abd 67f0 7e3d
000001a0: 2930 11bd c8ea 263d 5caf 1fbd c6e6 ac3d
000001b0: 8929 423a fe0a babd e213 b0bd f84e 653d
000001c0: 8433 a63d 3915 ddbd 92be 79bd eb5b 22bc
000001d0: ea4e 963c 7376 723d 62dc a03d d954 57bb
000001e0: d768 acbd f45e 40bc 1992 0bbd 60b9 84bd
000001f0: 8832 663b ad73 b3bd 6bb1 ebbc a853 f73c
00000200: 55f3 b83c 6d27 593b 6ef6 95bd 53d9 a5bd
00000210: 4793 6d3b f1db 7f3c 8bae 543d f4ea 9cbd
00000220: 4106 a4bc 9086 1cbd 1722 0cbd 0195 243d
00000230: 40fc 843c 5358 893d 054b 39bd ae15 41bd
00000240: cd20 89bd d9f4 10bd 5860 5e3d 088b 9f3c
00000250: dfde 433d 1403 dabd ce57 b6bd 9930 953c
00000260: 0586 7ebd 252c e3bd c59f 683d aa27 c1bd
00000270: aa80 f6bc 0d8a a03c 2c7f 493d 610e 893d
00000280: efe5 513d 3346 2f3c bd10 113c 374d 993d
00000290: 6d20 f8bb fb6c 91bc 37eb 6abd 7938 9cbb
000002a0: 3a30 8d3d ea67 a4bd 09b7 e7bd abc9 c8bd
000002b0: a0da cabd 0a50 55bd b7cb ab3d e998 b6bd
000002c0: 6f4a d2bd 1860 bc3c 3fb6 b0bd 5ce3 093c
000002d0: 2dcf a6bd 9a49 9cbd 0916 8abd 786e 80bd
000002e0: 0537 2a3d 8848 9e3d cdc7 3dbd 874a a6bd
000002f0: 5986 b3bd 4127 b8bc 88a7 a5bd 39d9 82bd
00000300: a608 293d 3fbf 8d3d 5eb5 f4bc e96e a93d
00000310: 0ceb 213d e2b2 95bd d876 bb3c 23da 3e3d
00000320: 24fd 62bd 6c37 52bd 5509 c0bd 10b4 94bc
00000330: b6a9 13bd ac9d f63a ee33 35bb 1e37 0439
00000340: 5b4c b2bc 589b a3bc 225a bebd e8e6 89bd
00000350: 7aaf c0bb c00e 9e3d f7f7 4cbc 825b 42bd
00000360: f96f bebd 20d5 4138 7d06 9b3d 443e bdbb
00000370: fbe6 c2bd 61ee 923d d38e 62bd 8ca2 99bd
00000380: a890 9c3d 1c78 5b3d 37af 723c 1fc4 c4bc
00000390: 7247 bc3c 29a5 cdbd 4ab4 2e3d f0c1 bbbc
000003a0: f7e9 d6bc e9cb 20bd 6e82 3bbd 246a 083d
000003b0: bbf1 433d 9698 8dbc 5a05 943d 8fba 5a3c
000003c0: 86a0 1d3d 8cb2 4c3d 6f15 923d 9c89 1d3c
000003d0: d1ed 11bb 509f 443d 6d59 a13d 0626 2cbd
000003e0: 367b fb3a 92a6 053c cc50 89bd fa9b 583c
000003f0: 5e32 a63d 1028 efbb 754b 24bd 49ca e13c

fc3.bias f4 [37]
-0.017246483 0.031493314 0.07221796 -0.027273271 0.065548055 0.027960097 0.052419078 -0.029107898
0.07715551 -0.050233223 0.027750164 -0.021601163 -0.09925703 -0.03589235 -0.009138051 -0.05184439
-0.008058637 -0.076591775 -0.07051266 -0.07088918 0.09139859 0.056301616 -0.035417452 0.05451935
-0.062296387 -0.07102091 -0.070425205 -0.050566226 -0.068427086 0.09204705 0.092915244 0.08317696
-0.06010915 -0.05866547 0.1005526 -0.03080556 -0.011583493
00000000: 7f48 8dbc 22ff 003d 03e7 933d 326c dfbc
00000010: 0f3e 863d 930c e53c 63b5 563d b073 eebc
00000020: b503 9e3d 5ac1 4dbd 5054 e33c ecf4 b0bc
00000030: 4547 cbbd db03 13bd c4b7 15bc c85a 54bd
00000040: 6008 04bc 26dc 9cbd f168 90bd 592e 91bd
00000050: 2f2f bb3d 869c 663d e411 11bd af4f 5f3d
00000060: 7f2a 7fbd 6973 91bd 173b 90bd 881e 4fbd
00000070: 8023 8cbd 2a83 bc3d 594a be3d af58 aa3d
00000080: 0335 76bd 344b 70bd 86ee cd3d f15b fcbc
00000090: b1c8 3dbc

fc11.weight f4 [64, 36]
0.12031865 0.109529495 0.14838398 0.14965579 0.07797509 -0.120445505 0.06030306 0.13477375
0.16412774 -0.011170221 0.0040255315 0.14110042 -0.061308846 -0.10595611 -0.083644405 0.08338637
0.14748259 0.10552447 -0.07213422 -0.16587152 0.11355724 0.088284746 0.08121797 0.023421725
0.053493854 -0.03837098 -0.026488537 -0.060283627 0.018505163 0.12667064 0.07397294 -0.12400168
0.03607505 -0.024810275 -0.038444832 0.12982687 -0.111585855 0.022771148 -0.15710004 0.025324969
0.09916174 -0.17219022 0.09956835 0.1029531 0.15396653 0.007205479 -0.120527945 0.091949515
0.11002856 0.029711252 -0.043481465 0.10075918 0.060564734 -0.13499859 -0.08550995 -0.03966356
-0.15353258 -0.07331641 -0.099624194 -0.03204466 -0.15199077 -0.05527413 0.0100800935 0.1581823
-0.05719112 -0.16637914 0.073065385 -0.13761063 0.0473536 -0.056804776 0.14425409 -0.08266318
-0.08941059 0.05905633 -0.13764343 -0.0010090662 -0.13922472 0.0052620503 0.12639855 0.13930476
0.09738869 0.062237255 0.049946815 -0.086988136 -0.040329155 0.1761876 0.15623136 0.06156011
-0.019425519 0.14339188 -0.110598885 0.098057635 0.12087097 -0.13902207 0.118558705 0.15980147
0.00550525 0.13572657 0.07076998 0.08346709 -0.1450397 -0.023415666 0.12726317 -0.039787572
0.03357803 0.13897614 0.12597142 -0.08743989 0.089633755 0.0919813 0.0059586936 0.109208606
0.16451438 -0.029792527 0.00017779857 -0.13109468 -0.14294288 0.08673455 0.007102304 0.064353
-0.15389766 0.14891115 -0.065575376 -0.04989962 -0.09839313 0.034183897 -0.042443678 0.026574496
-0.12066086 0.039260387 -0.13991714 0.033760805 0.09514795 0.13893975 -0.029269502 -0.033298437
0.089038774 0.16051383 0.019609204 -0.086208 -0.030813243 0.08881006 0.043291815 -0.007890561
0.052156534 -0.054246042 -0.04080372 0.058875967 0.06790633 0.03542111 0.03405981 -0.09724508
-0.10263085 0.03000495 0.044331037 0.06844412 0.08667474 -0.16115484 -0.047465406 -0.0056730723
0.015590649 0.17002316 -0.014920774 0.06221148 0.0027972076 -0.13372268 -0.09421142 -0.060905594
0.08760302 0.16691962 0.097103804 -0.11651062 -0.12781197 -0.006835835 0.12030666 -0.0738854
-0.0024240366 -0.043654405 0.041137774 -0.12846717 -0.15851122 0.10168461 -0.12212597 -0.15731934
0.13613966 -0.09889824 0.062391058 -0.01598474 0.022499252 -0.105658896 0.15254518 -0.083393484
0.12087625 0.118492685 0.074664064 -0.11524769 -0.06444466 0.052340098 -0.01035639 -0.0042226273
0.1585931 0.090199865 -0.14347821 0.06452234 -0.13107368 0.08603082 0.15192933 -0.17188513
-0.018284526 -0.08644148 0.019758029 -0.050175976 -0.0072664516 -0.08684098 -0.10509066 -0.13742207
0.07672494 0.09737613 -0.038213182 0.057150465 -0.08802767 -0.06743129 0.060726866 -0.1433723
-0.09784029 -0.07711868 -0.10918186 -0.03638707 -0.059010867 0.037514172 0.08757439 0.14030777
0.14313827 0.0036142485 0.11161155 0.14640126 -0.008572159 0.13448207 -0.11036742 0.029413136
0.13374512 0.13364239 -0.11562988 0.10379198 0.08050167 -0.063529015 -0.15444589 0.025176743
0.14664988 -0.04850714 -0.047952883 0.030730011 -0.079060316 -0.028741855 0.019777 0.14131877
00000000: a069 f63d 0051 e03d f8f1 173e 5e3f 193e
00000010: 67b1 9f3d 22ac f6bd 5700 773d 2102 0a3e
00000020: 1a11 283e 4d03 37bc 9be8 833b a17c 103e
00000030: fc1e 7bbd 84ff d8bd c24d abbd 79c6 aa3d
00000040: ad05 173e 371d d83d 1bbb 93bd 39da 29be
00000050: b390 e83d a2ce b43d 9b55 a63d ebde bf3c
00000060: 5f1c 5b3d e42a 1dbd 7dfe d8bc f7eb 76bd
00000070: 2498 973c f3b5 013e 207f 973d 98f4 fdbd
00000080: 6ec3 133d eb3e cbbc 5478 1dbd 56f1 043e
00000090: 2087 e4bd 8f8a ba3c d5de 20be 4f76 cf3c
000000a0: 4f15 cb3d a252 30be 7eea cb3d 13d9 d23d
000000b0: 67a9 1d3e f01b ec3b 5bd7 f6bd 0750 bc3d
000000c0: a756 e13d 0365 f33c 9f19 32bd d45a ce3d
000000d0: ba12 783d 123d 0abe d71f afbd 4276 22bd
000000e0: a537 1dbe ea26 96bd c507 ccbd 4341 03bd
000000f0: 78a3 1bbe 2067 62bd fa26 253c 8afa 213e
00000100: 3c41 6abd 4b5f 2abe 4ea3 953d cde9 0cbe
00000110: d9f5 413d 20ac 68bd 58b7 133e 504b a9bd
00000120: e61c b7bd 0de5 713d 66f2 0cbe a542 84ba
00000130: ed90 0ebe 476d ac3b 9f6e 013e e8a5 0e3e
00000140: b973 c73d 7eec 7e3d 0895 4c3d d626 b2bd
00000150: 2f30 25bd 866a 343e 1dfb 1f3e 7426 7c3d
00000160: 4422 9fbc 52d5 123e ab81 e2bd 71d2 c83d
00000170: 338b f73d cd5b 0ebe e8ce f23d ffa2 233e
00000180: 6265 b43b e8fb 0a3e daef 903d cbf0 aa3d
00000190: 4a85 14be 36d2 bfbc 4751 023e 4bf8 22bd
000001a0: 1e89 093d c34f 0e3e a7fe 003e af13 b3bd
000001b0: e791 b73d b160 bc3d 2541 c33b c3a8 df3d
000001c0: 7576 283e 750f f4bc 716f 3a39 af3d 06be
000001d0: 9e5f 12be e2a1 b13d 72ba e83b 81cb 833d
000001e0: 5997 1dbe 2a7c 183e 624c 86bd 8b63 4cbd
000001f0: 5682 c9bd 6a04 0c3d 6cd9 2dbd c2b2 d93c
00000200: 0a1d f7bd 80cf 203d 7046 0fbe c548 0a3d
00000210: eedc c23d 3946 0e3e 98c6 efbc f163 08bd
00000220: f659 b63d bd5d 243e 7ba3 a03c d28d b0bd
00000230: 0e6c fcbc 0ce2 b53d c252 313d 6947 01bc
00000240: 17a2 553d 1931 5ebd cd21 27bd ed27 713d
00000250: 7912 8b3d ba15 113d 4d82 0b3d 6e28 c7bd
00000260: 2030 d2bd f1cc f53c 7694 353d 6e2c 8c3d
00000270: 8782 b13d c605 25be 166b 42bd 2ee5 b9bb
00000280: ec6f 7f3c 8d1a 2e3e 4376 74bc 77d1 7e3d
00000290: 5b51 373b 99ee 08be ebf1 c0bd 2578 79bd
000002a0: 3669 b33d faec 2a3e 5cde c63d 1f9d eebd
000002b0: 24e1 02be 24ff dfbb 5763 f63d 3b51 97bd
000002c0: 96dc 1ebb f6ce 32bd 1580 283d e68c 03be
000002d0: c450 22be 0540 d03d 2e1d fabd 5218 21be
000002e0: 3268 0b3e 298b cabd c48d 7f3d 6ef2 82bc
000002f0: 5a50 b83c b163 d8bd ce34 1c3e 34ca aabd
00000300: f88d f73d 4bac f23d 79e9 983d fb06 ecbd
00000310: 90fb 83bd 9262 563d d9ad 29bc f75d 8abb
00000320: 3b66 223e b5ba b83d f4eb 12be 4a24 843d
00000330: 2e38 06be ed30 b03d 5d93 1b3e a802 30be
00000340: 6ec9 95bc 3b08 b1bd 97db a13c 5385 4dbd
00000350: 6a1b eebb afd9 b1bd c639 d7bd 5fb8 0cbe
00000360: f721 9d3d 236d c73d 6d85 1cbd 9b16 6a3d
00000370: da47 b4bd 6b19 8abd bcbc 783d 30d0 12be
00000380: 7d60 c8bd 66f0 9dbd bd9a dfbd 9c0a 15bd
00000390: 61b5 71bd 76a8 193d 345a b33d d7ac 0f3e
000003a0: d792 123e 07dd 6c3b 9994 e43d 36ea 153e
000003b0: 3e72 0cbc abb5 093e 5008 e2bd d1f3 f03c
000003c0: 7bf4 083e 8dd9 083e 5ccf ecbd e490 d43d
000003d0: 0fde a43d 801b 82bd 1027 1ebe 753f ce3c
000003e0: 632b 163e 6caf 46bd 3e6a 44bd 81bd fb3c
000003f0: 60ea a1bd 0a74 ebbc 6003 a23c deb5 103e

fc11.bias f4 [64]
0.027466014 0.16249281 -0.07449797 0.1146004 0.16219355 -0.15961353 0.10323688 -0.11780897
0.14166859 0.15760684 0.1393106 0.013418626 -0.013537679 -0.054959808 0.011504647 -0.15628403
-0.06550705 -0.07382094 -0.10442884 -0.0675685 0.14075021 0.1273954 0.042004365 -0.13988042
-0.14118794 0.1566454 -0.083572246 -0.11784853 0.03571021 0.109567076 0.02672184 -0.094084814
0.024646185 0.011863817 -0.15804152 -0.021357285 0.10997391 0.044510756 -0.05428999 0.062045693
-0.009189655 0.14228056 0.085206166 0.04919068 -0.026435675 -0.10652139 0.061446458 0.11168044
0.1517736 -0.10737328 0.09662151 0.047171343 0.013653731 0.111408114 0.123595364 0.098169826
0.04177817 -0.16569501 -0.028456619 -0.0038847704 -0.08279189 -0.06888484 -0.072577275 -0.11981011
00000000: 6800 e13c 8464 263e 6492 98bd 9db3 ea3d
00000010: 1116 263e bb71 23be db6d d33d d445 f1bd
00000020: 9211 113e b063 213e 70a7 0e3e ccd9 5b3c
00000030: 24cd 5dbc 891d 61bd fd7d 3c3c ec08 20be
00000040: 8f28 86bd 6f2f 97bd cade d5bd 5b61 8abd
00000050: d320 103e f173 023e c50c 2c3d d03c 0fbe
00000060: 9293 10be a767 203e ed27 abbd 925a f1bd
00000070: df44 123d b464 e03d c3e7 da3c 8aaf c0bd
00000080: cce6 c93c 7560 423c a3d5 21be 79f5 aebc
00000090: 003a e13d e950 363d 2e5f 5ebd a023 7e3d
000000a0: 3590 16bc ffb1 113e 9280 ae3d 2b7c 493d
000000b0: a18f d8bc e327 dabd 48af 7b3d b7b8 e43d
000000c0: 8a6a 1b3e 86e6 dbbd 80e1 c53d bd36 413d
000000d0: e6b3 5f3c f029 e43d 911f fd3d 430d c93d
000000e0: 961f 2b3d f4ab 29be db1d e9bc a297 7ebb
000000f0: cb8e a9bd 7f13 8dbd 65a3 94bd 015f f5bd
