outputs/checkpoint_4500.pth.tar (torch, 661473 bytes, 60 tensors)

fc11.weight f4 [64, 36]
000000 b0 09 c0 3d 59 32 02 3e 9c 7c 8c 3b d0 ac e6 bc
       0.09376848 0.12714519 0.0042873155 -0.028158575
000010 a6 20 a8 bd 49 3f eb bd 82 46 87 3d 84 79 ca bd
       -0.08209352 -0.1148668 0.06605245 -0.098864585
000020 eb 3b 41 3e 36 bd 0f be eb 7c 86 3d 4a cf 44 3d
       0.18870513 -0.14037022 0.06566795 0.04804925
000030 4b 0a 2f bd 66 58 04 3e fb c3 cb 3d 4c ab cc bc
       -0.042734426 0.12924346 0.0994949 -0.024984024
000040 b6 12 3c ba 2c 7d c4 3c 44 e5 a9 bd 9c d5 cb 3d
       -0.0007174419 0.023985468 -0.08295682 0.09952852
000050 d0 62 da bc 62 4b 0c be 93 89 88 bd e8 d0 81 bd
       -0.026658446 -0.13700631 -0.06666865 -0.06338674
000060 ea 11 a5 3d c7 c4 08 3d 81 27 79 3d 07 c1 86 3d
       0.080600575 0.033390786 0.06082869 0.06579786
000070 1f af 88 3d 33 2c 05 3e 8f ec 21 be fe 06 7f bd
       0.06674027 0.13005142 -0.15812896 -0.062262528
000080 47 7c 4f 3e fa d7 91 bd 6d 26 34 3e ce a2 39 3e
       0.20262252 -0.071212724 0.17592783 0.18128511
000090 f4 4c 3b 3d cf ec c1 bd 64 a3 2e be 6e 38 ac bc
       0.045727685 -0.09468996 -0.17054516 -0.021023002
0000a0 04 82 44 3d 20 c7 00 be 75 ab 07 be fa bf be bd
       0.047975555 -0.1257596 -0.13249 -0.093139604
0000b0 1b 87 2d bd e4 b1 f9 bd e3 79 cf bd 7e 7f 60 3c
       -0.042365175 -0.12192133 -0.1013067 0.0137022715
0000c0 95 57 8f bd f7 64 2d be 4f d4 30 be 1f 9a 18 3e
       -0.06999127 -0.16933046 -0.1726849 0.14902543
0000d0 6f 3d 22 be 60 cf 0f 3d 46 24 cf 3d e3 e8 fd 3d
       -0.15843748 0.035109878 0.101143405 0.12397935
0000e0 40 52 01 3e a7 3c 2e 3d 32 5f 24 be 89 0b d5 bd
       0.12629032 0.04253831 -0.16051939 -0.10402591
0000f0 51 eb 09 3e dd 4a 1c 3e a4 32 9f 3d fb fb ee bd
       0.13468672 0.15262933 0.07773331 -0.11669155
000100 63 58 07 3e 0f 84 a7 bc 1d a3 b0 3d fd a2 b0 bd
       0.1321731 -0.020448713 0.086248614 -0.086248375
000110 86 47 7a bc c6 e6 35 bd ab 7b 60 bc 00 8d d0 3d
       -0.015275842 -0.044409536 -0.01370136 0.101831436
000120 0d ad a1 bd d8 e1 03 3d 0c a3 37 bd ab c6 ca 3d
       -0.07894335 0.032197803 -0.044833228 0.09901174
000130 6e 70 fb bd 9d 2f cd bd 3b 52 98 3d 86 a1 95 3c
       -0.12277304 -0.10018847 0.07437559 0.018265497
000140 f9 52 3a 3d 3b 87 20 bd b7 05 3d 3d c3 06 01 be
       0.045489285 -0.039191466 0.04614803 -0.12600236
000150 c3 83 2c 3e f6 fd 69 3c d4 65 28 bd dd e5 e1 bd
       0.16847138 0.01428174 -0.041112736 -0.11030171
000160 e4 8d 8f 3d 63 05 75 bd b9 22 34 3d 5f b3 cb bd
       0.07009485 -0.05981959 0.043978427 -0.09946322
000170 0e dc 06 be 3d 73 23 bd 32 5f 9f 3d c1 5f 87 3c
       -0.13169882 -0.03990482 0.07781829 0.016525151
000180 b0 7d 10 be d7 96 1e 3e 77 af fa 3c ce 9e bb 3d
       -0.14110446 0.15487228 0.030601246 0.09161149
000190 27 41 4e bd ea 34 93 bd 34 7b c7 bd bf 9e 1d 3e
       -0.050355103 -0.07187827 -0.09740296 0.15392588
0001a0 03 d3 2a bd 77 a4 34 3e 3d 72 8f bd f5 73 e3 bc
       -0.041705143 0.17640863 -0.07004211 -0.027765254
0001b0 29 72 2c 3d f7 4a f7 3d 65 f3 74 3d 60 88 80 3c
       0.04210106 0.12074845 0.05980243 0.015690029
0001c0 cb e8 28 be 55 1a 05 be d3 2f c0 bd 83 c7 ff 3d
       -0.16495053 -0.12998326 -0.09384122 0.12489226
0001d0 78 da f6 3d 3b 65 07 be f9 ec 2f be 9c 6b 5e bc
       0.12053388 -0.1322221 -0.17180242 -0.013575461
0001e0 7e 07 46 bd 96 a2 d0 bd b2 60 e1 3d 04 9a 24 be
       -0.04834699 -0.10187261 0.11004771 -0.16074377
0001f0 7c c5 fd bc 4b aa cc bd ca 80 06 be d2 49 26 be
       -0.030977957 -0.09993418 -0.13135067 -0.16239098
000200 ae 9c 52 3c df 5d c0 3d f3 c6 15 3e ed 42 62 3d
       0.012854738 0.093929045 0.14626674 0.055239607
000210 e7 cd 84 bd 73 9d 65 3d 08 90 eb 3d f8 a6 d7 bd
       -0.06484585 0.05605836 0.11502081 -0.10529894
000220 16 63 12 3d 71 30 01 3e 7b 19 83 3d 28 3a ec bd
       0.035739027 0.12616135 0.064013444 -0.1153453
000230 ce 6b 63 3d 74 36 b2 bd d2 0a 2e be a8 37 00 3e
       0.055522732 -0.08701792 -0.16996315 0.12521231
000240 39 af 19 3e 31 6d 10 be 57 39 10 3e 7a 1c 00 3c
       0.15008248 -0.14104153 0.14084373 0.007819289
000250 1d a4 99 3d 18 03 13 3e 57 c6 ce bd 96 a5 03 bd
       0.07502005 0.14356649 -0.10096424 -0.032140337
000260 28 7c 38 be 43 eb 9f bd 03 5a 22 be 3f 3c 7c bc
       -0.18016112 -0.078085445 -0.15854649 -0.015395223
000270 2c 54 cf bd ce ea e9 3d fe 0a 1a 3e 3f a1 93 3c
       -0.101234764 0.114217386 0.15043256 0.018021224
000280 99 bb 10 bc 22 3f 2e 3e 2c f0 03 be 35 af 01 bd
       -0.008833789 0.17016271 -0.12884587 -0.03166123
000290 15 bb 1a bc 3c c7 96 3d 24 84 0f be b7 a5 c2 3d
       -0.009444018 0.0736222 -0.14015251 0.09504264
0002a0 ab 15 21 bd 8a ae 86 bd ae 6b ea 3d 39 0f 8e 3d
       -0.039327305 -0.065762594 0.114463195 0.06936497
0002b0 d0 7f 75 3d e3 d8 9c 3b b1 78 24 be d3 df fc 3d
       0.059936345 0.004786597 -0.16061665 0.123473786
0002c0 e6 39 d9 bc 5e f1 71 3d 2a ad 22 be 65 ca 08 be
       -0.026516866 0.059068076 -0.1588637 -0.13358457
0002d0 c8 eb f3 3d 1d a1 21 bc 72 93 86 bd 44 ee a1 3d
       0.11910206 -0.009865073 -0.06571092 0.07906774
0002e0 f9 75 f6 bd 5c 36 d5 3b ef 9c 0a be d0 91 fd 3d
       -0.1203422 0.0065067243 -0.13536428 0.12381327
0002f0 2c 73 00 be 7f ad 0f bd d1 53 d9 bd b0 15 d9 bd
       -0.12543935 -0.03507757 -0.1061169 -0.1059984
000300 bb 5d 98 bd 27 c8 aa 3d e0 75 f0 3d 08 de 3d 3e
       -0.07439753 0.08338957 0.11741233 0.1854173
000310 da 89 ed bc 86 85 a8 bd 41 08 0a 3e 1c d3 da bc
       -0.028996397 -0.082285926 0.13479711 -0.026711993
000320 a4 18 0a 3e 90 9d 05 be cb 0c 7d bd 57 87 c7 bc
       0.13485962 -0.13048387 -0.06177978 -0.024356527
000330 6a b6 19 3d c3 de 7e 3c 5a fe c5 bd 2a 36 b7 bd
       0.03752748 0.01555604 -0.09667654 -0.08945878
000340 5d 1c ef bd 27 93 ae bc c2 e6 1c be 39 52 24 3e
       -0.11675332 -0.021310402 -0.15322402 0.1604699
000350 e3 39 0c be 58 6a 08 be eb 57 dc 3d 0e 69 d2 3d
       -0.13693957 -0.13321817 0.107589565 0.10273944
000360 2f ce b5 bd e3 4a 84 bc 0f 46 11 bd 67 86 2b 3e
       -0.08877217 -0.01614899 -0.035467204 0.16750489
000370 1c 74 8e bd 77 7c a0 bc d8 ad f4 3d 17 81 22 3d
       -0.0695574 -0.0195906 0.119472206 0.03967389
000380 8d 6f f4 bb 4a be 26 be 71 7a 0c be 5a 22 00 be
       -0.007459587 -0.16283527 -0.13718583 -0.12513104
000390 74 ca e4 3d f5 cc ce bd f4 21 3f 3d 08 06 31 3e
       0.11171427 -0.10097686 0.04666324 0.17287457
0003a0 2a d1 b0 3d 3a 09 07 be fe 65 1d be 6d a7 1e 3d
       0.08633645 -0.13187113 -0.15370938 0.03873389
0003b0 e0 e7 e5 bd bb ee 29 bd 0c ff e8 3d 82 17 e4 3d
       -0.11225867 -0.041487437 0.11376771 0.11137296
0003c0 a0 1f cb 3d 4f 48 cf bd cd 8c 0a 3e 1e 72 a0 3a
       0.09918141 -0.10121214 0.13530274 0.0012241041
0003d0 f4 88 4f bd 1c 8d 05 3e c6 b4 eb bd b5 58 47 bd
       -0.050667718 0.1304211 -0.11509089 -0.048668582
0003e0 ec 74 f0 3d f0 55 22 3e 49 30 37 3e 51 97 19 be
       0.11741051 0.15853095 0.17889513 -0.14999129
0003f0 65 22 04 bd c8 9a aa bc a6 da 85 bc 7a ce 67 3d
       -0.032259364 -0.020825759 -0.016339611 0.056593396

fc11.bias f4 [64]
000000 3e 85 df bd 51 c4 27 3d b3 c3 18 3d 0e e6 f7 3d
       -0.10914086 0.040958706 0.03729601 0.12104426
000010 6d 98 a5 3d e8 7c 04 3d 17 7c 97 3d 20 02 0b be
       0.080857135 0.032345682 0.07396715 -0.1357503
000020 a4 fa 95 3c 20 8b ad 3d 01 65 d2 3c 9b f1 ef bd
       0.018307991 0.084738016 0.025682928 -0.117160045
000030 4f 03 b1 3d 57 d1 fc bc ab 35 90 bd 2a 60 82 bc
       0.08643209 -0.03086154 -0.07041486 -0.015914995
000040 23 e6 1d 3e 5b 25 54 3d a1 24 0d 3d 4a 07 41 bd
       0.15419821 0.051793437 0.03445876 -0.047126092
000050 54 77 16 bd d1 2a 0a 3e 7c 99 8e 3d 2a 56 f0 3c
       -0.036734894 0.13492896 0.069628686 0.029337961
000060 7b e2 8a 3d be 05 3e bd 75 69 8e bc 5b 29 d4 bd
       0.06781479 -0.046392195 -0.01738427 -0.103594504
000070 62 47 ca bd 81 7a 67 3d f3 03 9f 3d 5e c0 b9 bd
       -0.098768964 0.056513313 0.07764425 -0.09069894
000080 34 99 9e bd e1 c0 fe bd 9b 60 23 be b7 9c a4 bd
       -0.07744065 -0.124391325 -0.15954821 -0.080377035
000090 c4 d4 b3 bd 56 7c af 3d 21 cb 04 3d e9 5e da 3d
       -0.08780816 0.08568637 0.03242028 0.10662634
0000a0 bf 61 0f 3e 54 f3 57 3d 12 8f 17 3e bf 77 82 3d
       0.14002131 0.05272229 0.1480067 0.06370496
0000b0 dd c2 95 bd 82 0a 17 3d 96 63 e1 bd be 5f ed 3c
       -0.07312558 0.036875255 -0.11005323 0.028976317
0000c0 1a 8c 04 3d e6 8d d2 bd 06 92 18 3e c6 d0 9c 3d
       0.032360174 -0.10280971 0.14899454 0.07657008
0000d0 c4 f6 79 3d c1 7b dc bd e9 fc 0e bd d7 3f 29 bd
       0.06102635 -0.10765792 -0.034909163 -0.041320648
0000e0 6f 6f dc bc 6c 65 ae 3d 88 59 06 3e 25 2d ee 3c
       -0.026908604 0.085154384 0.13120091 0.029074261
0000f0 8a dc 0d be 71 22 9b 3b 08 00 e1 3d 36 f9 04 3e
       -0.1385366 0.0047343303 0.10986334 0.12985691

fc13.weight f4 [32, 36]
000000 8c 09 15 be bf 5b 19 3e d6 19 38 bd 16 8c 38 bd
       -0.14554423 0.14976405 -0.044946514 -0.04505547
000010 4b 89 c7 3c 56 75 04 bb 00 10 01 3e cb 09 84 bc
       0.024357459 -0.002021154 0.1260376 -0.01611795
000020 7b 72 17 bd 3a f3 0e be 76 12 21 3e 06 f0 9f 3d
       -0.03697441 -0.13959971 0.15729699 0.07809453
000030 5f ed 11 be 56 96 25 3c ee ca db bd 18 67 cb 3d
       -0.14250706 0.010106644 -0.10732065 0.09931773
000040 9b 7c 6d 3d 40 c3 49 bd 36 2a 0a bd 50 9b 1b 3e
       0.05798016 -0.04925847 -0.03373166 0.15195966
000050 10 42 12 bd ab 5a b0 3b 60 b2 ee 3c 96 40 c7 bc
       -0.035707533 0.005381902 0.02913779 -0.02432279
000060 7b 3f 81 3d cf 59 15 3e cb 9b d9 bc 58 2b e2 3d
       0.06310936 0.1458504 -0.026563546 0.110434234
000070 a8 41 23 be 0e 7e 8a 3d 5e e3 87 bd 24 5b 0a 3e
       -0.15943015 0.06762324 -0.06635164 0.1351133
000080 64 8c 0d be 46 3e bd bd 47 2f 1d be 2b 38 c6 3b
       -0.13823086 -0.09240393 -0.15350066 0.006049176
000090 eb d1 cb bc 1b 36 52 bd 53 15 20 3e d3 50 ac bd
       -0.02488037 -0.05132113 0.15633135 -0.084138535
0000a0 10 36 74 bd 8b 7a e7 bc ab 7b 28 3e 40 be aa bc
       -0.05962187 -0.028256675 0.16453426 -0.020842671
0000b0 2b cb 0a be a0 09 23 bd cc 1a 16 3e ab b0 21 3e
       -0.13554065 -0.0398041 0.1465866 0.1579005
0000c0 63 4a 1e 3e 78 bf 0f be 86 c3 64 bd 8a 36 03 be
       0.15458064 -0.14037883 -0.05585053 -0.12813774
0000d0 16 44 ce bc bb 3c 32 3d 8c a5 03 3e 6b c9 f1 bd
       -0.02517895 0.04351495 0.1285612 -0.118059956
0000e0 70 39 76 bd 60 25 4c 3d 8c df 16 be 36 2b ad 3c
       -0.06011337 0.04984033 -0.14733714 0.021138769
0000f0 63 3f dd bd 4b af 94 bc 0e d1 a1 3d 00 5b 90 bd
       -0.10803106 -0.018149992 0.07901202 -0.07048607
000100 8b 6a 6f bd f6 fe df bd 24 c4 0a 3e 58 20 c0 bd
       -0.058451217 -0.10937302 0.13551384 -0.09381169
000110 24 53 05 3e 48 9e 9d 3d c0 dd 18 be eb 65 b7 3c
       0.13019997 0.076962054 -0.14928341 0.022387465
000120 90 28 94 3d 58 a0 94 bd ea 38 15 3e 80 08 e1 3c
       0.07234299 -0.07257146 0.14572492 0.027469873
000130 58 79 a9 bd d0 7e 01 3d 6e 55 0e 3e 4b f8 cd bc
       -0.082750976 0.03161508 0.13899776 -0.02514281
000140 16 1f 58 bd dc 64 27 3e e8 d2 0f be fb 1e 75 bd
       -0.05276402 0.16347069 -0.14045298 -0.059844
000150 97 eb 04 be 00 40 fa 3c 68 eb 83 bd c8 f8 f8 3d
       -0.12980495 0.030548096 -0.064413846 0.12156826
000160 d8 ca d1 bd 56 ed 5f 3d ab 90 fb 3a 8e e2 9a bd
       -0.102437675 0.0546697 0.0019192895 -0.07562743
000170 a0 32 7e 3d 1b 25 c9 bd 34 62 22 3e fa b4 0b be
       0.06206 -0.098215304 0.15857774 -0.13643256
000180 bb 63 42 bd 87 e9 20 3e a0 d4 07 bd 56 cb d8 bd
       -0.04745839 0.15714084 -0.03316176 -0.10585658
000190 83 44 f5 bd 48 45 e3 3d 56 29 8d bb b6 5a 62 bd
       -0.11975958 0.11097199 -0.004307906 -0.05526229
0001a0 e3 f4 9e 3d db 1c 0f be cb 44 e3 bc eb b9 3d bc
       0.07761552 -0.13975851 -0.027742764 -0.011579971
0001b0 db 0e 4c 3d b6 a4 bb 3d bb 74 75 bd 00 11 b4 3c
       0.049818855 0.091622755 -0.059925776 0.021980762
0001c0 80 a2 29 3d 4a cf 03 be f8 20 c5 bd ee 8e c6 3d
       0.041414738 -0.12872043 -0.09625429 0.096952304
0001d0 80 d8 ff bc 56 e9 b4 3b 8e d5 a8 3d 06 af c9 3d
       -0.031231165 0.00552098 0.08243857 0.09847836
0001e0 df 39 00 be d0 f5 07 3d 48 95 23 3e eb 96 57 bc
       -0.12522076 0.03319341 0.15974915 -0.01315854
0001f0 e0 ed a7 bc 00 1e 70 3c a3 d3 09 3e f6 3c cb 3c
       -0.02049917 0.01465559 0.13459639 0.024809342
000200 1b 32 06 3e 58 14 80 bd 60 b1 ba bd 46 c4 01 3d
       0.13105051 -0.0625388 -0.09115863 0.03168132
000210 aa f3 19 3e 10 a9 8b 3d 83 c9 1e be 17 50 04 3e
       0.15034357 0.068193555 -0.15506558 0.12921177
000220 b4 48 26 3e 56 c6 21 3e be 3f 13 be 16 9f 16 bc
       0.16238672 0.15798315 -0.14379784 -0.0091932025
000230 ab fc ed bb 70 15 0d 3d 56 68 20 3b f6 74 8c 3c
       -0.0072627864 0.034444273 0.0024476252 0.017145615
000240 40 96 c0 bc 2b 19 4d 3c db aa 61 bd 1b e0 2c 3d
       -0.023509145 0.012518208 -0.05509458 0.04220591
000250 9a e1 28 3e 20 f2 e8 bc 13 f1 ae 3d d0 23 10 bd
       0.1649231 -0.028435767 0.08542075 -0.035190403
000260 0a 67 04 be d6 78 c7 3c 96 2a 90 3c e2 6d 0f 3e
       -0.12929931 0.024349611 0.017598432 0.1400676
000270 ef 1f 05 be a6 0d 26 3d 6a 1c 16 3e b0 1c 18 be
       -0.13000463 0.04054036 0.14659277 -0.14854693
000280 e2 fe 28 3e 9b 63 24 bd 6e bd b3 bd 00 41 d4 3b
       0.1650348 -0.040134054 -0.08776365 0.006477475
000290 e6 fe 97 3d e7 8c 0c 3e ee 06 0a 3e 86 0e 92 bd
       0.07421665 0.13725625 0.13479206 -0.071316764
0002a0 f3 0f ed bd c8 f8 08 be 2b 11 fa bb 90 0f 08 bd
       -0.11575308 -0.13376153 -0.007631441 -0.033217967
0002b0 d6 2a a4 bd 43 f2 f2 3d 10 9a 92 3d 2e 16 2a be
       -0.08015983 0.11862614 0.07158291 -0.16610023
0002c0 f6 25 13 3d 0e 80 85 3d 00 75 21 be eb 85 58 bc
       0.035924874 0.06518565 -0.15767288 -0.013215522
0002d0 6b 6a ab bd 7e 9b de 3d 2b f4 26 3d 6f 5b 16 be
       -0.08369907 0.108695015 0.0407602 -0.14683317
0002e0 38 cd ee 3d 9b 18 db 3d 38 a2 de bd 63 65 ae 3d
       0.11660236 0.106980525 -0.108707845 0.08515432
0002f0 6b 7c 1b 3e 97 b7 25 3e 7b 12 24 3e f7 52 24 be
       0.1518418 0.16183315 0.16022675 -0.16047274
000300 36 f9 4a bd db 95 99 3d b6 fd f5 bd d0 9d 03 be
       -0.049554072 0.07499286 -0.12011282 -0.1285317
000310 b6 00 cc 3d 60 3a 07 3e 13 c0 cc 3d a0 f1 28 3d
       0.09961073 0.13205862 0.09997573 0.041246057
000320 d6 74 42 bc 8e 0e de bd 60 d8 ff 3c 80 72 8a bd
       -0.011868676 -0.1084262 0.031231105 -0.067601204
000330 8e 2d 97 3d 30 bf 20 bd c0 8f 7b bc d8 05 ba 3d
       0.07381736 -0.03924483 -0.015354097 0.09083146
000340 b0 0a 85 3d d6 27 68 3d 00 85 cd bb d6 51 a9 bb
       0.06496179 0.056678616 -0.0062719584 -0.0051672263
000350 fb 2f fc bd 9b 65 4e 3d 5b b7 16 3d b6 d9 cf bd
       -0.12313839 0.050389867 0.036795955 -0.10148947
000360 0b 18 8a bd 1a 55 07 be 30 17 5e 3d b0 a8 d8 bd
       -0.06742867 -0.13216057 0.054221332 -0.105790496
000370 f6 14 75 bd d6 3c 41 3d 36 9d 86 3d f3 9a 29 3e
       -0.059834443 0.04717716 0.06572954 0.16563015
000380 56 2f 0d bc 86 2b 1e be 57 4a 04 be 10 01 69 3d
       -0.008617243 -0.1544629 -0.12918983 0.05688578
000390 50 c7 80 bd 17 d8 23 3e 6b bc 64 bd 38 7c 0f be
       -0.06288016 0.160004 -0.055843752 -0.1401223
0003a0 00 78 99 3a 68 8e c9 3d e0 77 62 bd c0 4c 6e bd
       0.0011708736 0.09841615 -0.055290103 -0.058178663
0003b0 10 a4 f1 bd b6 33 61 3d e0 cd 7b bd 86 16 b9 3d
       -0.117988706 0.054980956 -0.061475635 0.09037499
0003c0 4f a1 06 3e 5b 4a 6a 3d 4b 2d 00 3e c0 26 96 3c
       0.13147472 0.057199817 0.12517278 0.018329024
0003d0 93 98 0f 3e e0 30 3d 3d cb 78 05 bd 17 a6 11 3e
       0.14023046 0.04618919 -0.0325859 0.14223514
0003e0 58 2c da 3d c6 17 b5 bd 6f 72 03 3e e4 65 23 3e
       0.10652989 -0.08842425 0.12836622 0.15956837
0003f0 e6 e5 17 be 56 38 98 3c 0e aa dd bd ce 7a fc 3d
       -0.14833793 0.01858155 -0.10823451 0.12328111

fc13.bias f4 [32]
000000 b6 f0 7a 3d 7f a0 db 3b 57 5b 69 ba e7 cc ee 3d
       0.061264716 0.0067024822 -0.00089018553 0.11660176
000010 8c 32 99 bd 5f f1 03 be 36 7a 34 be 26 8c 5c 3d
       -0.07480344 -0.12885045 -0.17624745 0.053844593
000020 27 47 07 be 46 68 47 3d b1 77 3d be 1d 7e 8b bd
       -0.13210736 0.048683427 -0.1850269 -0.068111636
000030 46 a8 26 bd da 2b df bd 26 b5 12 3e 7e 6d 14 3e
       -0.04068782 -0.10897036 0.14326915 0.14494893
000040 a4 00 07 3e fc 68 3e be 34 5e 64 3d a6 6f 1b 3e
       0.13183838 -0.18594736 0.0557539 0.15179309
000050 6e 6f a8 3d 11 d0 29 3d d0 0f 41 bd d2 fa 07 3e
       0.082243785 0.041458193 -0.04713422 0.13279274
000060 43 35 21 be 8c c4 fd bd 30 50 a1 3b 76 1a 6f 3d
       -0.15742974 -0.12391004 0.004922889 0.058374844
000070 81 db 61 3d 7d 43 17 b9 ea 2b 02 be 00 53 1f 3c
       0.055140976 -0.00014425624 -0.12712064 0.009724379

fc14.weight f4 [32, 36]
000000 5b 35 60 3d ee bc 8a bd 46 93 d0 bd c0 9d bd 3d
       0.054738384 -0.06774317 -0.1018434 0.09258604
000010 38 e9 fc bd bb 3b 6e 3d ab 89 d2 3d 53 74 c0 3d
       -0.123491704 0.058162432 0.10280164 0.09397187
000020 8e ae d4 3d 80 22 04 bc 77 2c 00 3e 2e ae 85 3d
       0.10384856 -0.008064866 0.12516962 0.06527363
000030 c6 fd 58 bd 36 48 9b 3c 20 a8 a7 3c 66 20 3a bd
       -0.052976392 0.018955331 0.02046591 -0.045441054
000040 cb bd 9d 3c 33 b5 97 3d d3 0c fb bd ab 44 2c 3c
       0.01925554 0.07407608 -0.122583054 0.010514419
000050 23 1d c8 bd ab fb 1b 3e 50 d4 32 bd 16 28 5b 3d
       -0.097711824 0.15232722 -0.04365951 0.053505026
000060 f6 3c c9 3c d0 ff 14 3e 3a 32 08 be 66 98 00 bd
       0.024565201 0.1455071 -0.1330041 -0.03139534
000070 18 b3 d4 3d 1a 81 08 3e a0 07 fa 3d 7b 2d 1a 3e
       0.10385722 0.13330498 0.122084856 0.15056412
000080 40 10 2e 3c 16 bc 35 3c 5b a6 15 3d 7b 54 ac bd
       0.0106239915 0.011092206 0.036535602 -0.08414551
000090 74 4a 07 3e f3 a1 b5 3d b3 73 e9 3d 48 b3 23 be
       0.13211995 0.0886878 0.11399021 -0.15986359
0000a0 60 2c 9c bc 80 67 91 bc 84 97 15 be 70 2c 22 3e
       -0.019064128 -0.017749548 -0.1460858 0.15837264
0000b0 0b f6 da bc 7b 76 07 3e ee 7a a4 3d 50 b2 6c 3d
       -0.02672865 0.1322879 0.080312595 0.05778724
0000c0 0b 83 01 be e0 28 9a bd 3b 26 83 3d f6 41 f0 bd
       -0.12647645 -0.075273275 0.06403776 -0.11731331
0000d0 fe da be 3d 56 e3 96 bd 24 30 22 3e 9b 3d 3a 3d
       0.09319113 -0.0736758 0.15838677 0.045468908
0000e0 36 ae a5 3d 18 aa f0 3d 68 40 89 3d 16 24 4b 3d
       0.08089869 0.11751193 0.06701738 0.04959496
0000f0 80 8c 25 be e8 52 a6 3d bb 95 c7 3d 10 a6 05 3d
       -0.16166878 0.08121282 0.09745356 0.032629073
000100 88 15 81 bd f6 e9 90 bd b6 10 f7 3c a8 68 00 be
       -0.06302935 -0.070758745 0.030159336 -0.12539923
000110 16 30 54 bd ab 32 2f 3d 98 cb e2 bd 96 37 e7 3d
       -0.05180367 0.04277293 -0.11073989 0.11289899
000120 e0 79 65 3d 18 63 92 3d 2b 7b 01 bd 13 50 e8 3d
       0.056024432 0.07147807 -0.031611603 0.11343398
000130 00 7f 11 3e e0 15 a7 3c dc 0a 25 3e 28 85 d3 3d
       0.14208603 0.020396173 0.16117424 0.10328132
000140 db 8d db bd a6 94 93 bd 93 74 14 3e d6 80 64 bc
       -0.10720416 -0.07206087 0.14497595 -0.0139467325
000150 22 3e 1f 3e 3a ea 1c be 33 72 00 be c0 7a 70 bc
       0.15551046 -0.15323725 -0.12543564 -0.014677703
000160 cf 96 22 3e 06 93 27 be 36 40 e7 3d 96 1c 04 3e
       0.15877841 -0.16364679 0.11291544 0.1290153
000170 d6 d9 7a 3d fb 8a 28 be b6 d9 13 be c0 55 a7 bc
       0.0612429 -0.16459267 -0.14438519 -0.020426631
000180 ab 9b 4b 3c cb fb c6 bd a6 f4 8a bd 56 48 7d 3c
       0.012427251 -0.097159944 -0.06784944 0.015459141
000190 0b ed ae 3c 03 c5 aa 3d 00 6b 45 bd 3b 22 b6 3d
       0.021353265 0.08338358 -0.048197746 0.08893248
0001a0 a8 ff 98 bd 2b f5 ea 3d ab 77 fa 3c 27 85 0a be
       -0.074706376 0.11472543 0.03057464 -0.13527356
0001b0 1b 87 2c 3d 7b 88 fa 3d 20 21 9c 3c 6a 2c 18 3e
       0.042121034 0.12233063 0.019058764 0.14860693
0001c0 96 fe 47 3c f8 a3 db 3d 28 89 21 3e 0b d3 b5 bd
       0.012206694 0.10724634 0.15774977 -0.08878144
0001d0 d8 a0 27 3e 3b 11 49 3d 5e 7e fc 3d 60 7d a7 3c
       0.16369951 0.049088698 0.1232879 0.020445526
0001e0 db 7b 43 3d 50 94 b6 3d cb 7d c3 3c eb d8 ae 3c
       0.04772554 0.08915007 0.023863694 0.021343669
0001f0 48 17 98 3d 8b 4d 9f bd 16 59 d2 3d 5e 0c b2 3d
       0.074263155 -0.07778462 0.10270898 0.08693765
000200 5e b3 f8 3d 06 74 66 3d 90 36 56 3d fb f4 95 bd
       0.121435866 0.056262992 0.05229813 -0.07322117
000210 e6 5a 5e 3d 0b 8f dc 3d d6 18 ff 3b ab 94 59 3c
       0.054285906 0.10769471 0.007784943 0.013280074
000220 b6 2e 8a 3d b6 7d d3 bc 10 06 e3 bd 56 5f a8 bd
       0.06747191 -0.02581678 -0.11085141 -0.08221309
000230 70 43 5d bd 3b 65 0d bd 96 3d 20 3e 0e 9e d5 3d
       -0.05401939 -0.03452037 0.15648493 0.10430537
000240 73 dd 83 3d 96 f4 d0 bd 4b 3f 9f bc ff f2 06 3e
       0.064387225 -0.10202901 -0.01943936 0.13178633
000250 6e fe 06 be 13 6f 98 bd db c2 45 3d a6 81 e0 3d
       -0.13182995 -0.07443061 0.04828153 0.109622285
000260 ab 1a e3 bb 0e 66 ee bd 46 a4 06 3e d8 8e fc 3d
       -0.0069306693 -0.11640559 0.13148603 0.12331933
000270 16 56 64 3c 56 5d 70 bb fb 3e 07 3e ab b5 d8 3c
       0.01393654 -0.0036676726 0.13207619 0.026453814
000280 9b 59 72 bd 80 5c 59 3c fb 3f 07 3e 9b 93 aa bd
       -0.059167486 0.013266683 0.13208 -0.08328935
000290 fb a5 94 3d c0 7e 87 bd cb 8c 0b 3e ff ca 13 be
       0.07258221 -0.066159725 0.13627927 -0.14432906
0002a0 eb dd 28 be 23 9a e9 3d c0 36 ef 3d d3 9c bd 3d
       -0.16490905 0.11406352 0.116803646 0.092584275
0002b0 63 ac f7 3d ce 18 d4 3d 38 50 d3 3d 2e 7a 9c 3d
       0.12093427 0.103562936 0.10318035 0.076404914
0002c0 7b 73 63 bd 8b a8 9d 3d 33 11 9a bd e6 5c fc 3d
       -0.055530053 0.07698163 -0.07522812 0.123224065
0002d0 c0 6a 02 bd 00 f8 c9 ba 80 09 67 bd 6b 49 61 bd
       -0.031840086 -0.0015408993 -0.056405544 -0.055001657
0002e0 3b ab 58 bd 90 64 97 bd 0b f2 9d bc 36 db 3e bd
       -0.052897673 -0.07392228 -0.019280454 -0.046595775
0002f0 18 44 f1 bd 60 a7 25 be ab a5 d5 3d 88 e9 f1 bd
       -0.11780566 -0.1617713 0.10431989 -0.11812121
000300 3b 1e 68 bd b6 23 bc 3c 80 b6 30 bc 76 8a 8b 3d
       -0.056669455 0.022966247 -0.010785699 0.06813519
000310 96 b0 3e 3d bb dc 19 3e 9b b2 05 be cb 87 d8 3d
       0.046555124 0.15025608 -0.13056414 0.105727755
000320 be a4 87 3d a3 f4 af 3d 76 a7 e1 bc 2b 77 b9 bc
       0.06623219 0.085915826 -0.027545672 -0.022639832
000330 70 e1 69 bd d8 8c d3 bd 5c 44 1e 3e 18 c3 25 3e
       -0.05709976 -0.10329598 0.15455765 0.16187704
000340 4b 2a a7 3c 26 1f b8 bd 7f cb 29 be 80 12 8e 3d
       0.020405909 -0.08990316 -0.16581534 0.06937122
000350 5b c7 b2 3d 26 20 5f bd 56 36 27 3e 43 37 9e bd
       0.0872943 -0.05447402 0.16329321 -0.07725384
000360 f6 62 17 3e d8 17 da bd 96 c0 f9 bd 2b 21 7c 3d
       0.14783844 -0.10649079 -0.12194936 0.06155507
000370 76 95 48 3d a3 c9 8a 3d 7e 76 1d 3e ab 68 4e 3d
       0.048970662 0.067767404 0.15377232 0.050392788
000380 57 66 1f be 4e be 9b bd 80 b4 98 bd 98 b4 de bd
       -0.15566383 -0.07604657 -0.07456303 -0.10874289
000390 c0 b7 05 bc 6b 9c 25 3e 56 94 b2 bd 60 39 bd bd
       -0.008161485 0.1617295 -0.08719699 -0.09239459
0003a0 a0 16 ee bd cb aa c3 bd 78 01 b9 bd 46 36 0c bd
       -0.11625409 -0.095540605 -0.09033483 -0.034231447
0003b0 06 50 12 bd 20 58 38 3d 5e 59 b2 3d ab 5e 55 bd
       -0.035720848 0.045005918 0.08708452 -0.052092236
0003c0 66 99 10 3d 2e 3c bd bd 8b 50 b2 bd 6f 80 09 be
       0.035302542 -0.09239994 -0.087067686 -0.134279
0003d0 68 69 b6 3d c0 0f 7d bc f3 79 da 3d e6 8e 64 3d
       0.089068234 -0.01544565 0.10667791 0.05580034
0003e0 c6 2f 11 be 23 4d e4 bd d3 b3 15 be b8 77 27 3e
       -0.1417838 -0.11147525 -0.14619379 0.16354263
0003f0 00 5b f6 3b e0 b6 c2 3c 9b 2a 20 3d 36 f0 e3 bd
       0.0075181723 0.023768842 0.03910313 -0.11129801

fc14.bias f4 [32]
000000 23 77 b0 3d 1e a0 04 be cc e7 ca 3d 5d 91 41 3d
       0.086164735 -0.12951705 0.09907493 0.04725777
000010 95 5a 53 bd 77 b7 04 bd a0 ed 7f 3c bc 36 b9 3d
       -0.051600058 -0.03240153 0.015620619 0.09043643
000020 c6 c3 f9 3c d2 c4 66 3d c4 9b 82 3d 92 48 11 be
       0.03048886 0.056340046 0.06377366 -0.1418784
000030 4b c7 06 be 75 7b 35 bd 9b 60 a6 3d 0d 93 19 be
       -0.13161962 -0.04430719 0.08123895 -0.14997502
000040 09 4f 6b 3d 21 45 c0 bc 6b df e0 3b 32 79 91 3d
       0.05744842 -0.023470463 0.006862571 0.07103194
000050 5d a9 80 bd 16 9f be 3d 5a c2 67 bd e1 a0 d1 3d
       -0.062823035 0.09307687 -0.056581832 0.10235763
000060 f2 e6 bf 3d f5 e0 00 3c 24 a4 01 3e 05 b3 15 3e
       0.09370221 0.007866134 0.12660271 0.14619072
000070 1e 0f 92 bd 6f 98 bf 3d 59 9b 77 3c a4 3f 9d 3c
       -0.071317896 0.09355246 0.015112721 0.019195385

fc2.weight f4 [128, 130]
000000 f5 21 b8 bc 49 af 7e bd c2 15 9d bc eb 1a 36 bc
       -0.02247713 -0.062178884 -0.019175414 -0.011114816
000010 6f 5a 75 3c a9 d7 87 3d 28 3d df 3c 85 f8 27 bd
       0.014975174 0.06632931 0.027250841 -0.04100849
000020 78 03 80 3d 79 24 49 bd 3d eb 9a 3d 9b 72 30 bc
       0.062506616 -0.04910705 0.075643994 -0.010769512
000030 c2 06 53 3d 80 dd 65 3c df d1 a7 3d 6a c0 84 3c
       0.051520117 0.0140298605 0.081943266 0.016205031
000040 54 83 57 3c ea 7a 23 3d 0e 2f bf bb 70 31 34 bd
       0.01315387 0.03991214 -0.005834467 -0.04399246
000050 a1 13 34 3d 24 c4 20 3d 37 34 9d 3d 23 9f 62 bd
       0.043964032 0.039249554 0.07675975 -0.055327546
000060 0a 1c 33 bc 64 83 64 3d af 1f 88 3d 5e 38 53 3d
       -0.010931978 0.055789366 0.06646668 0.051567428
000070 d2 ac fc bc d2 a0 d2 3d 92 81 03 3d c9 c7 3e 3d
       -0.030844126 0.1028458 0.03210599 0.04657725
000080 4b 99 b5 bd b3 96 c3 3c 01 7b 44 bc 9b 6f a8 3d
       -0.08867129 0.02387557 -0.011992217 0.08224412
000090 17 04 61 3d 40 b2 76 bd a8 c9 49 3b 61 89 7f 3d
       0.05493554 -0.060228586 0.0030790363 0.062386874
0000a0 d3 36 fd bc 39 b4 4c bd 2a cb a9 3b 0f 9f a7 3d
       -0.030909931 -0.04997656 0.0051816897 0.08184635
0000b0 a4 6d 65 bd 6b a7 20 bd 1c da c4 3d d4 95 18 bd
       -0.056012765 -0.039222162 0.096119136 -0.037252262
0000c0 bf f0 c3 3c 62 40 3b bd 05 78 2b bd 2a bb c5 bc
       0.023918508 -0.045715697 -0.041862506 -0.024137098
0000d0 8f 11 6e bd 9a 2c b7 bc d4 80 35 bb a8 79 d7 bc
       -0.058122214 -0.022360135 -0.0027695196 -0.026303127
0000e0 e8 fe 61 bb 46 c8 85 3d d1 f5 20 bd 37 89 97 bc
       -0.0034484211 0.0653234 -0.03929693 -0.018498046
0000f0 74 49 3b bd 0e 09 32 bc 7a b4 6e bd 93 6c 90 bc
       -0.045724347 -0.010866417 -0.058277585 -0.017629897
000100 ea d9 67 3d 07 f9 20 bd e4 37 bd bc f1 12 5a bb
       0.056604303 -0.03929999 -0.02309794 -0.003327545
000110 67 34 bc 3d d9 b9 a7 3d e9 5b 4e bd 7b 74 ab bd
       0.091896825 0.081897445 -0.05038062 -0.08371826
000120 75 98 6a 3d 7e 65 ae bd f5 ce 5c 3d 7a a3 98 bb
       0.0572743 -0.08515452 0.053908307 -0.00465816
000130 11 ba a7 bd 2a fc 20 3c 5f f0 6a bd 6c d0 80 bd
       -0.08189786 0.009825746 -0.057358142 -0.06289753
000140 50 2e 7e bd d6 dc 34 3d 85 f3 53 3d 4c 3e 8a bd
       -0.062055886 0.044155918 0.05174591 -0.067501634
000150 99 c7 04 bb 02 a8 72 3d ce 0f 9c 3d a5 85 6a 3c
       -0.002026057 0.059242256 0.07620202 0.01431409
000160 88 dc 4b bd d4 ca 59 3d 3e 25 16 bc d7 32 bc 3d
       -0.049770862 0.053171948 -0.009164153 0.091893844
000170 e0 ee 9b bd e1 5a ba bc be 8c 68 3d 67 14 5f 3b
       -0.07613921 -0.022748413 0.056774847 0.003403926
000180 a9 c0 84 bd f8 25 1d bc 4b 69 b2 3d cf de 05 bc
       -0.064820595 -0.009591572 0.08711489 -0.0081707975
000190 ff d9 46 3d d8 b1 9f 3d 39 bc f9 bc f9 b7 1b bd
       0.04854774 0.07797593 -0.03048526 -0.038017247
0001a0 69 e5 5c bd 26 a3 a9 3d 42 8e 56 bc 7b c9 2c 3d
       -0.05392972 0.08283071 -0.01309544 0.042184334
0001b0 03 4c b0 bd 9e b3 e1 bc 91 55 ec 39 6a 20 39 bc
       -0.08608248 -0.027551468 0.0004507718 -0.011299232
0001c0 48 5d 90 3d 0b 5d 99 3c 5e 12 39 bd 6d 84 b9 3b
       0.07049042 0.018721124 -0.045183532 0.0056615383
0001d0 1a 6a d4 3c bc ba 89 3d 49 92 9d 3d cf 09 71 3c
       0.0259295 0.0672507 0.07693917 0.014711811
0001e0 23 52 d5 3c 57 82 db bc a9 70 9c 3c 28 13 7e 3d
       0.026040142 -0.02679555 0.01909669 0.062029988
0001f0 af 6f c6 3c c9 fb 44 3d 73 5d e0 bc 07 04 93 3d
       0.024223177 0.048091684 -0.02738831 0.071785025
000200 20 8a 93 bc 3c e4 57 3d 98 14 54 bd 30 cc ca bc
       -0.0180102 0.052707896 -0.051777452 -0.024755567
000210 a4 4f 05 3c 9f 56 30 bd a3 ca 8d 3b a3 15 58 3c
       0.008136664 -0.04305136 0.0043271347 0.013188752
000220 77 4a 91 3d 03 a3 ce bb fd 70 df 39 c7 d3 88 bc
       0.07094281 -0.0063060536 0.00042618057 -0.016702546
000230 c7 31 fc 3c f3 71 73 bd fe c9 30 bd 28 5a 18 3d
       0.030785454 -0.059434842 -0.043161385 0.037195355
000240 1f 07 c9 3c 84 c3 bf 3c c7 57 92 bb 76 d6 94 bd
       0.024539528 0.023408659 -0.0044660303 -0.07267468
000250 80 d5 96 bc e6 e9 18 bd 06 ca ee bb 09 5c ac bd
       -0.018412352 -0.037332438 -0.0072872667 -0.08415992
000260 d9 ad c9 bc 8f 4e 27 bd e2 5d 0d 3d ec d8 7e 3c
       -0.02461903 -0.040846404 0.03451336 0.015554648
000270 ce 02 a1 bd d3 6e 3a bd b1 8c 4c ba 9a e5 df ba
       -0.07861863 -0.045515846 -0.0007802947 -0.0017081976
000280 5e eb 05 bd f8 00 98 bd df a9 91 3d 60 8d 8e bc
       -0.032695167 -0.0742206 0.071124785 -0.017401397
000290 f1 ad 92 3d 9e 7f d6 bc 7d 01 8b bd 1d c8 6f 3c
       0.07162083 -0.0261839 -0.06787393 0.014635113
0002a0 68 ee 82 bd 8a e0 5e bd 4c 0d 60 3b df 6e c4 bc
       -0.06393129 -0.054413356 0.0034187613 -0.023978649
0002b0 f8 a1 5b 3d 4f f1 6a bc dc df 37 b9 c0 d5 c2 bd
       0.053621262 -0.014339759 -0.00017535634 -0.09513426
0002c0 3b 2b 21 3b 83 64 4f bd b5 cd 5f 3d b8 35 a5 bd
       0.0024592418 -0.050632965 0.054639537 -0.08066887
0002d0 d3 d3 76 3d 54 15 6d bd 2a d2 08 3c e0 30 b3 bc
       0.060260605 -0.05788167 0.008350888 -0.021873891
0002e0 e6 e6 7e bd 70 b9 b5 bd 90 0b c6 3c 46 bc 98 3d
       -0.06223192 -0.0887326 0.024175435 0.07457785
0002f0 1f 3c 8f 3d fe 36 90 bb db ef cb 3c 84 87 37 3d
       0.06993889 -0.004401087 0.024894645 0.044806972
000300 8b 19 35 bc 2d 39 b2 bd 07 f7 65 3d c3 07 c4 bd
       -0.011053453 -0.08702312 0.056143787 -0.09571793
000310 2c 43 b9 bd 3b e7 88 bd d9 55 b0 bc 12 29 56 bc
       -0.09046015 -0.06684729 -0.02152531 -0.013071315
000320 d1 c1 81 3d b2 78 42 3d cf 23 c8 bd d4 fc 88 bd
       0.06335796 0.047478385 -0.09772455 -0.06688848
000330 c9 62 00 bc 06 b6 a2 bd c8 9a 6f 3d 76 d6 cf bc
       -0.007836052 -0.079448745 0.05849722 -0.025370818
000340 68 4c 43 3d 9b c4 80 3c 36 55 ba 3c 1b c4 c3 bc
       0.04768029 0.015718749 0.02274571 -0.023897221
000350 be 3c 9d bd 94 53 1d 3d bb c4 55 3d 1d c2 f7 bb
       -0.07677601 0.038409784 0.05218957 -0.007560982
000360 2e be 2d 3d f9 30 88 bd 44 a8 25 3d f1 e7 27 3d
       0.042417698 -0.06649966 0.040443674 0.04099268
000370 b8 af 83 3c 3b e4 1d bc 78 c5 64 3d 96 16 1b 3d
       0.016075 -0.009636934 0.055852383 0.037863337
000380 dd 27 97 3d ce d0 1b bd 58 4c 4b 3d c7 fb 85 3d
       0.0738065 -0.03804093 0.049633354 0.06542163
000390 11 8f 41 bd 1b 9f 2c 3c 95 48 f7 bc 9f 85 ea bc
       -0.04725558 0.010535981 -0.030185977 -0.028628169
0003a0 c2 1b f7 3c 3f 5e 02 3b e4 90 93 3a 6a d7 93 bd
       0.030164603 0.00198926 0.0011258391 -0.07218821
0003b0 f3 dc bf 3c fb 0f 2c bd 45 dd 82 bc 71 83 89 3d
       0.023420786 -0.042007428 -0.01597465 0.067145236
0003c0 19 4a a3 3d c2 e4 bb bd 69 08 f3 bc 84 cb 16 3c
       0.079731174 -0.091744915 -0.029667096 0.009203795
0003d0 64 c5 90 bd 6a 28 09 bd b8 4d 79 3c 79 40 89 bd
       -0.07068899 -0.033485807 0.0152162835 -0.0670175
0003e0 45 33 3a bd 7e b5 3c bd fa fe 55 3d 84 f2 b5 bd
       -0.04545905 -0.046071522 0.052245118 -0.08884147
0003f0 59 af 03 3c 83 42 31 bc 92 84 56 3d f7 a5 1c 3d
       0.008037412 -0.01081908 0.052372523 0.038244214

fc2.bias f4 [128]
000000 8e 02 e0 bc 58 28 9e bd b2 87 4f 3d bc 10 cb 3c
       -0.027344968 -0.07722539 0.05066652 0.024788253
000010 0c 53 9d bd fa 87 12 3c 71 dd 3d 3d 73 cf 15 3d
       -0.076818556 0.008943552 0.04635376 0.036574792
000020 34 7f 2f bd 1a 4c 49 bd c0 57 8d 3d 9a f6 90 3d
       -0.04284592 -0.04914484 0.069015026 0.070782855
000030 2d da 5d 3d 45 d9 f4 bc c5 55 6e bd cc 1b c2 3c
       0.054163147 -0.029888758 -0.058187265 0.023694895
000040 bf 6d 35 3c 89 a7 0e 3d 1c a0 c6 3c 90 75 40 3c
       0.011073529 0.034827743 0.024246268 0.011746779
000050 42 e1 23 bd f4 8f f0 bc 47 f4 33 3d 71 2c 32 bd
       -0.040009744 -0.029365517 0.043934133 -0.043499414
000060 66 a1 15 bc eb 1e 82 3d 9c 77 3f 3d a9 d8 72 3d
       -0.009132719 0.063535534 0.046744928 0.059288654
000070 7e 3d 98 bd 14 79 bb 3d a7 45 a0 bd 61 7b 86 bd
       -0.07433604 0.09153953 -0.07825785 -0.065665014
000080 a2 33 57 3d f9 f3 8a 3d 8a aa 63 3d f0 5b 14 bd
       0.052539475 0.06784815 0.05558256 -0.03622049
000090 f3 e5 b1 3c cb 8f 9d 3d 60 d9 07 bc ab d7 e8 bc
       0.021716094 0.07693442 -0.008291572 -0.028423151
0000a0 56 de 8d bd e4 f3 3c bc 52 43 a2 3c 4f cf 7d 3c
       -0.06927173 -0.011532757 0.019807491 0.015491321
0000b0 03 3d 2a 3d 6e c0 9d bc 3b 48 8c bb 8b 24 0d 3d
       0.04156209 -0.019256797 -0.0042810715 0.03445868
0000c0 15 51 08 3d 93 3d 19 bc 53 c7 ae bb 27 78 08 bd
       0.03328045 -0.009353059 -0.00533382 -0.03331771
0000d0 b4 1b 56 3d ca 88 01 3c 47 dc 86 bd 41 46 55 3c
       0.052272514 0.007906148 -0.06584983 0.013017238
0000e0 b6 92 99 bc 27 83 4f bd b4 d1 5a bd 21 01 02 3b
       -0.018746715 -0.050662186 -0.053422645 0.0019837099
0000f0 7e 8b 01 bd 80 f9 ea bc aa 6d 1c 3d f0 a5 4c 3d
       -0.03162717 -0.028683424 0.03819052 0.049962938
000100 54 93 6e 3c 04 44 91 bd 4a ca ac bb b8 5f a8 3d
       0.014561493 -0.07093051 -0.005273138 0.08221382
000110 26 14 fb ba 3c dc 4f bd c7 26 8b bb 37 50 aa 3c
       -0.0019155785 -0.05074714 -0.004246566 0.020790203
000120 4a 85 56 3d 83 59 f4 3c a6 80 6b bd 47 97 9e bd
       0.052373208 0.029827839 -0.057495736 -0.077436976
000130 30 72 7e bc 34 c7 af 3c 88 cb 4b bd 06 f6 a0 bb
       -0.015530154 0.021457292 -0.04975465 -0.004912141
000140 86 18 61 bd 5c 0f e4 3c 3c d4 42 3d 9a 93 2d bc
       -0.054955028 0.027839355 0.047565684 -0.010594273
000150 2a 10 49 3d be b7 3a bd 16 46 4d 3d 41 b0 b5 bd
       0.04908768 -0.045585386 0.050115667 -0.088715084
000160 d5 ef e8 bc b6 c5 b0 bc c9 8f 54 3d 76 2e b7 3d
       -0.028434673 -0.02157865 0.051894937 0.089444086
000170 0d 04 48 bd dd e4 5c 3c 1d 78 5e bd a7 e2 44 3d
       -0.048831988 0.0134823 -0.054313768 0.048067715
000180 08 57 a0 bd bb a6 45 3d f4 ba b7 bc b1 69 4e 3d
       -0.078291 0.04825471 -0.022428013 0.050393764
000190 de e8 b5 3c 77 44 88 3d 7f 13 87 bd 30 00 06 3d
       0.022205766 0.06653684 -0.065955155 0.032715023
0001a0 46 58 9f bd 69 48 63 3d 3a 7a e5 bb e0 c0 a0 3c
       -0.07780509 0.055488978 -0.007003096 0.01962322
0001b0 a1 2d 7a 3d 79 e2 29 3d b5 d2 79 3d 8d 98 00 3d
       0.06107867 0.041475747 0.06099196 0.031395484
0001c0 7f 3a 9e bc 3a ce 30 bd 74 52 89 3d bf 0b a1 3d
       -0.019315002 -0.043165423 0.0670518 0.078635685
0001d0 a5 96 59 3b 22 e7 45 3d d3 ad 9c 3d e4 9b 9a 3d
       0.0033201363 0.04831613 0.07650342 0.07549265
0001e0 85 b8 bc bd 24 4b d9 3d 1b 94 5b 3d a6 6d 84 bd
       -0.09214882 0.10610035 0.05360804 -0.06466226
0001f0 1f 44 80 bc 97 f5 af 3d b8 bd b8 bd 6c cf 1f bd
       -0.015657483 0.085917644 -0.09020561 -0.039016172

fc3.weight f4 [37, 128]
000000 86 e6 4f 3d 1b 71 6d bc d6 10 42 bd 30 0c d8 bd
       0.050756954 -0.0144922985 -0.047379337 -0.105491996
000010 50 62 ed 3c 07 dd c3 bd 40 5f a3 3d 2b 17 c8 bd
       0.028977543 -0.09563642 0.07977152 -0.09770044
000020 93 5e e8 bd 38 a5 94 3d 3f 52 d7 bd 4a a9 67 bd
       -0.113461636 0.072580755 -0.10513734 -0.05655793
000030 23 d3 16 3d 49 38 93 bc d2 f1 e3 3c 1c 08 8c bc
       0.03682245 -0.017971175 0.02782527 -0.01709371
000040 5e 60 cd bd 58 fb 24 bd 52 58 03 be fe d4 83 bd
       -0.10028146 -0.040278763 -0.1282666 -0.064371094
000050 ce 3e 53 bd c3 13 88 bc 85 91 9b 3d 8b b7 e9 3c
       -0.051573567 -0.016610986 0.07596115 0.028529903
000060 11 5c 9b bc b2 b2 43 bc 4b d9 c3 bd 9f f6 80 bd
       -0.0189648 -0.01194446 -0.0956293 -0.06297039
000070 8a f5 40 3d 01 67 fe bc 78 67 40 3d 0b 56 86 3c
       0.047109164 -0.031054975 0.046973675 0.01639845
000080 5d 0d 21 bd bc ff 39 3d 58 77 14 3d 76 85 fe 3c
       -0.039319385 0.045409903 0.036246628 0.031069499
000090 7e bc 49 3d da 54 50 3d e9 c9 97 3c 7e a8 06 be
       0.049252026 0.05086217 0.018528895 -0.13150212
0000a0 74 97 08 3b 05 95 f9 3c 24 b9 16 bc ba 32 c1 3d
       0.0020842226 0.030466566 -0.009199414 0.094335034
0000b0 c0 0c ec bd cc bb ee 3c 0a 7a b6 bd c7 26 ac 3b
       -0.11525869 0.029142283 -0.08909996 0.005253646
0000c0 02 fe 85 bb 52 d0 bd bd 03 91 b5 3c 51 dd 64 3c
       -0.004089118 -0.092682496 0.022163874 0.013968782
0000d0 e3 b2 80 bd 0c f4 56 3d 9c 3f d9 3d 3e 64 11 be
       -0.0628412 0.052478835 0.10607836 -0.14198396
0000e0 f1 d8 52 3d bb 01 d2 3c 3f 20 8d 3c 21 5e 96 bd
       0.051476423 0.02563559 0.01722729 -0.073421724
0000f0 12 95 cc bd 55 16 48 3d 64 69 a6 3d a1 cc 55 3d
       -0.099893704 0.048849422 0.081255704 0.052197102
000100 42 47 9c bd cd 68 12 3c 05 8e 9f bd 4c 5d b8 bd
       -0.07630779 0.008936119 -0.0779076 -0.0900217
000110 26 28 79 3c 00 c8 3a bd 0a d7 36 bc 72 a1 88 bd
       0.015207326 -0.04560089 -0.011159668 -0.06671418
000120 34 df 81 bd 97 87 a9 bd 39 14 28 bd 66 3f 54 bd
       -0.06341401 -0.08277815 -0.04103491 -0.051818274
000130 56 39 ed 3c a6 78 64 bc 15 68 87 bd 09 a8 89 bd
       0.028958004 -0.01394478 -0.06611649 -0.06721503
000140 79 e3 32 bd d9 1c ae bd 88 d1 96 3d 44 20 90 3d
       -0.043673966 -0.08501596 0.07364184 0.07037404
000150 53 fb 54 bc f3 41 99 3d 42 e3 cd 3c e0 85 81 3d
       -0.0129993735 0.07483282 0.025132779 0.06324363
000160 4f cb 8a 3c 5e 5c 04 3c 0e 28 a4 bd f9 f8 8d bd
       0.016942648 0.008078663 -0.08015452 -0.069322534
000170 da 08 9e bd 4d 85 2e bd 0c 8a 27 3c f9 e1 5e bd
       -0.07716532 -0.042607594 0.010225784 -0.054414723
000180 59 a0 75 3a ff 48 ae bd d2 f7 95 3d cf 6b 7a bd
       0.0009369902 -0.08510017 0.073226586 -0.06113797
000190 5a 46 49 3c 28 fb e0 bc 28 c0 f7 3c 62 df 03 be
       0.0122848395 -0.02746351 0.030242994 -0.12878183
0001a0 67 11 f7 bc ff 3b 92 3d 9e a8 12 bd c4 cb 3c 3d
       -0.030159665 0.071403496 -0.035805337 0.046092764
0001b0 fc 54 07 3d da 70 11 be 65 63 c0 3d cb cc c2 bd
       0.03304003 -0.14203206 0.09393958 -0.095117174
0001c0 d7 be 05 bc 0d 79 20 bd 9c 9b d2 bd 07 31 56 bd
       -0.008163176 -0.039177943 -0.102835864 -0.05229285
0001d0 2f a0 6d bd 11 59 79 3b 02 1f 3a 3d 3c b6 8f 3d
       -0.05801409 0.0038047472 0.045439728 0.0701718
0001e0 da 14 0e 3c f6 85 49 bd cc cb 61 bb 92 21 be bd
       0.008671964 -0.04920002 -0.0034453748 -0.09283747
0001f0 c1 0b 58 bc 26 c6 50 3d a6 70 d0 3b 80 b7 60 3d
       -0.013186396 0.05097022 0.006361085 0.0548625
000200 c3 45 40 3a f6 7f 57 3d 78 26 f1 3b 59 24 92 bd
       0.0007334614 0.052612267 0.007359322 -0.07135839
000210 3b fc 19 bd ac 4f 12 3d 8d 6d a9 bd ea c4 3f bd
       -0.03759406 0.035720512 -0.08272848 -0.04681865
000220 d7 2e d7 bd ef a2 9d bd 29 bd a9 bc b3 7b 96 bd
       -0.10506981 -0.07697093 -0.020720081 -0.073478125
000230 ee 1a ce bd 0d 70 eb 3b ae 52 13 bc 4c 1b af bd
       -0.1006373 0.0071849884 -0.00899188 -0.08550128
000240 57 3d 61 bd f7 6c e0 3c d8 cc a1 bd 2d af c0 3c
       -0.05499014 0.027395708 -0.07900399 0.02352103
000250 0f fb 01 bd ac d0 64 bc a5 c7 68 bd 6a e3 d1 3a
       -0.03173357 -0.013965767 -0.05683102 0.0016013209
000260 db 27 9f bd d8 3a 32 bc e6 40 c6 bd 5d 79 c6 3c
       -0.07771274 -0.010878287 -0.09680347 0.024227792
000270 52 e0 b3 bd 22 77 65 bb 64 07 ca 3b 57 11 cb bd
       -0.0878302 -0.0035013636 0.006165432 -0.09915417
000280 05 2e ca bd a9 18 40 bb de ad 2f bd 56 07 5c 3d
       -0.09872059 -0.0029311574 -0.042890422 0.053717934
000290 47 a3 84 bd 82 8c 6e bd 80 09 59 bc ee e7 e1 bd
       -0.06476455 -0.058239467 -0.013246894 -0.11030565
0002a0 81 03 8a bb bd ab b2 3d 57 bf ab 3b 37 f4 7e 3d
       -0.0042118435 0.08724163 0.0052413153 0.06224462
0002b0 34 32 d9 bd 31 de 36 bc 86 be 1c 3d af 54 f2 bd
       -0.106052786 -0.011161373 0.038267635 -0.11832558
0002c0 5b 8c 8a bb ed 96 8e bc 30 b6 d0 bc b8 bf 15 3c
       -0.0042281575 -0.017405951 -0.025477499 0.009139948
0002d0 b1 77 c5 bd f3 7c bf bb ba 6c e0 3c 3e 47 31 3d
       -0.0964197 -0.0058437525 0.027395595 0.043280832
0002e0 03 8f 48 3d f2 e4 9e bd 14 b0 22 bd 98 16 a4 3c
       0.04896451 -0.077585116 -0.039718702 0.020030305
0002f0 7e 8a 40 3d 24 84 c6 3d 33 33 e3 3c c7 1a 7e 3d
       0.047007076 0.096931726 0.027734375 0.062037256
000300 88 57 9b bc e0 53 60 bb 47 44 99 3d e8 69 b5 bd
       -0.018962637 -0.003422968 0.07483726 -0.08858091
000310 de 23 d2 bd c7 7e dd bc 82 46 82 3c 61 2f 64 3d
       -0.102607474 -0.027037991 0.015902761 0.055709247
000320 c2 9b ab bd 94 f2 f5 bc b1 02 71 3d 25 37 01 3d
       -0.08379318 -0.030022897 0.058840457 0.03154673
000330 83 59 0b be 1b 81 ec bc a1 93 f1 bc 0a 26 05 3c
       -0.13608365 -0.028870156 -0.02948934 0.008126745
000340 49 5d 0d 3c e2 47 8f bc 17 8b 95 3d a3 c8 5a 3d
       0.008628198 -0.017490331 0.0730192 0.053414
000350 fe d7 80 bd 58 3e fe bc f0 21 a8 bd 4e 97 a0 3c
       -0.06291197 -0.031035587 -0.08209598 0.019603398
000360 81 b1 b6 bd 5f 0e fc bc 5e ff e9 3c 8a e2 ea bd
       -0.08920575 -0.030768571 0.028564151 -0.1146899
000370 50 2a d1 bd 4d 4a 10 bd 49 66 9c 3c 51 c5 09 be
       -0.102131486 -0.03522711 0.019091742 -0.13454176
000380 5c 99 3b 3d 62 33 b8 bd dd dc 85 3b 27 8c 8d 3d
       0.04580055 -0.089941755 0.004085167 0.069114976
000390 8b c9 b3 bd 1a 7b e8 bd 40 60 8f bd ea 47 05 be
       -0.08778676 -0.11351605 -0.0700078 -0.13015714
0003a0 0e 38 88 3d a9 ae c3 bd de 16 82 bc 67 6d ae 3c
       0.066513166 -0.09554798 -0.015880045 0.021292401
0003b0 c8 18 50 bd 59 60 97 bd 13 43 5b 3d 94 eb 57 3d
       -0.050804883 -0.07391424 0.053530764 0.0527149
0003c0 13 a6 a4 bb 26 ba af bd 99 f5 8e bd ce 9f 13 bd
       -0.0050246804 -0.08580427 -0.06980438 -0.036041074
0003d0 a7 0f 81 bd a7 1d 07 bd f7 51 3e 3d 74 81 b7 3d
       -0.063018136 -0.032987263 0.046464887 0.08960238
0003e0 fb 2f 16 3d 0a c6 95 3b 7f 21 5f bd 5c a3 16 bd
       0.03666685 0.0045707272 -0.054475304 -0.036776885
0003f0 17 b9 b1 bd b7 8f 61 bd 95 b5 b5 bd e2 89 66 3d
       -0.08677881 -0.055068698 -0.08872525 0.05628384

fc3.bias f4 [37]
000000 c9 61 7e bc 94 56 28 3d da 1d a4 3d 2a 81 e5 3b
       -0.0155262435 0.041098192 0.08013506 0.007003923
000010 61 5c ca 3d 32 6b 8b bd 71 65 8e ba 05 cf eb 3c
       0.09880901 -0.06807555 -0.0010863972 0.028785238
000020 53 46 6a bc 43 1b 27 bd 9f 5d af 3d 6a fc 98 3d
       -0.014298993 -0.040797483 0.08562779 0.07470019
000030 a8 7d 47 3c 07 cc d4 3d f3 fd a1 3b cb aa 8a 3d
       0.012175955 0.10390478 0.004943603 0.067708574
000040 28 f3 3e 3d ca 07 65 3d 23 08 4b bd 0b 87 bc b9
       0.04661861 0.05591563 -0.049568307 -0.0003595877
000050 8a 00 b3 bc 74 ab 6b 3d e6 4d 3b bd 2e 59 55 3d
       -0.021850843 0.057536557 -0.045728587 0.052087
000060 db bf 6b bd fd 42 95 3d cc 74 b1 3d 50 63 3d bd
       -0.057556015 0.072881676 0.08664855 -0.04623729
000070 20 7f 1d bd 7c c3 43 3d 75 89 b2 bd 95 bf 9b bc
       -0.038451314 0.04779385 -0.08717624 -0.019012252
000080 fd 3f 40 3d 3f 98 2c 3c bc be 86 3d 92 75 05 bc
       0.046936024 0.010534345 0.065793484 -0.008145707
000090 07 c7 e9 bc
       -0.028537286
